checkpoint_critic0.pth (torch_old, 30699 bytes, 5 tensors)

fcs1.weight f4 [128, 24]
0.04890191 -0.18807161 0.023169225 0.034943074 0.18814003 0.023730574 -0.034106594 -0.041966684
0.018436868 -0.18312888 -0.054206405 -0.033867672 -0.0257903 0.09300629 0.05390809 0.06347861
0.14029638 -0.14534721 0.007817419 -0.011945239 -0.46436492 0.27760154 -0.012274287 -0.03346709
0.12436866 0.05053752 0.03284812 0.04931437 0.22536342 -0.017684573 -0.033696868 0.023067603
0.013493101 -0.22614157 0.009190406 0.008677021 0.08504674 0.10622472 0.011341989 -0.019958207
0.015377436 -0.29791033 -0.006423931 -0.113767505 -0.19949628 -0.14522989 -0.024107315 -0.059801556
-0.048625227 -0.18599404 0.02669626 0.07491029 0.018867316 0.014278037 -0.044532638 -0.008905773
-0.08220571 -0.099148765 -0.024708938 0.113625996 -0.059709072 -0.14241421 0.04048084 0.10592573
-0.042271238 0.03587321 -0.017864857 0.1714849 0.2503825 -0.1752036 0.009083155 0.021925392
-0.07624813 -0.16811931 -0.02094015 -0.012043777 -0.14829853 -0.175101 0.015427914 0.0036363876
0.014508572 0.15078855 -0.035321668 -0.03602398 -0.051312692 -0.045258775 0.035321034 -0.08413891
0.019645758 0.022623397 -0.004163823 -0.16133584 0.473216 0.3445968 -0.0065323906 -0.051207487
-0.09316891 0.21346384 -0.024904905 -0.0017023385 0.07425324 0.012636803 0.021401335 0.017629212
-0.14688846 0.33875617 -0.07196238 0.051735327 0.08553188 -0.20060976 0.06204594 -0.03827367
-0.15920095 0.32312053 0.013053653 0.08653085 0.25812 -1.0921936 -0.037678376 -0.07273239
0.06006439 -0.008703962 0.067416675 0.115932934 0.3439415 0.12312326 -0.07168209 0.037061866
0.065735996 -0.090024196 0.058181558 0.025267893 0.009667816 0.07504765 -0.07355142 0.038880274
0.06392988 -0.023359137 -0.0070742043 0.11679704 -0.2359912 -0.15147999 -0.062348776 -0.009878263
0.007546044 0.08255823 -0.09728827 0.09910015 0.09768603 -0.23143741 -0.048168942 0.04854878
0.011035488 0.0006849656 0.029510787 0.075490296 0.15441729 -0.36380798 -0.055589832 -0.044934783
0.019776365 0.07451109 -0.029094595 0.013713304 0.15547845 -0.24095143 -0.042760264 0.006854364
-0.1562859 0.020709913 -0.0027007493 -0.06987423 -0.027127953 -0.34618327 -0.00034842157 0.054122005
-0.03334979 -0.06562364 -0.039819025 -0.00852913 0.09732084 -0.012195751 -0.019387297 -0.030054068
-0.1416688 0.059389386 -0.079456955 -0.061309744 0.29705346 0.25771648 0.051031847 0.025948951
-0.023425478 0.037930254 0.01913108 -0.10679346 0.03074906 0.1542603 0.0011931947 0.04075463
-0.03102595 0.01631185 -0.04928043 -0.04035525 0.016180033 0.26014423 -0.0020102952 -0.0004460045
0.07008487 -0.041056946 0.03435563 -0.08908476 -0.046944827 -0.11660319 -0.0398195 0.03668665
0.083349444 0.042057227 -0.01194803 -0.04626968 -0.11636689 -0.08686694 0.013809965 -0.00096479966
0.25794035 0.08386774 0.024441306 0.0004203139 -0.16948862 0.03422768 0.0324285 -0.035078187
0.24847052 0.055917904 0.04030544 -0.050666824 -0.36495337 0.14561816 0.007214499 0.0048190895
-0.06466194 0.102457106 -0.036008455 -0.028797856 0.060715597 -0.012106386 0.0031874785 0.006256875
0.0046050167 0.21710485 0.014470034 -0.057764508 -0.0024377648 -0.21495739 -0.0138335265 -0.050230954
00000000: 5f4d 483d d895 40be 63cd bd3c 7820 0f3d
00000010: c8a7 403e 9f66 c23c 5bb3 0bbd 42e5 2bbd
00000020: ea08 973c 2386 3bbe 8907 5ebd d4b8 0abd
00000030: 2e46 d3bc 157a be3d bbce 5c3d 1301 823d
00000040: dba9 0f3e e6d5 14be a214 003c f7b5 43bc
00000050: 3dc1 edbe ca21 8e3e 171a 49bc ca14 09bd
00000060: ffb4 fe3d 6e00 4f3d c08b 063d ddfd 493d
00000070: abc5 663e 3ddf 90bc ba05 0abd 45f8 bc3c
00000080: 2b12 5d3c a891 67be 5b93 163c 102a 0e3c
00000090: fc2c ae3d 598c d93d c0d3 393c 657f a3bc
000000a0: a4f1 7b3c b487 98be d77f d2bb f0fe e8bd
000000b0: c148 4cbe 25b7 14be b47c c5bc 7af2 74bd
000000c0: 3f2b 47bd 3975 3ebe 1db2 da3c 916a 993d
000000d0: a18f 9a3c 6dee 693c db67 36bd 85e9 11bc
000000e0: 785b a8bd 820e cbbd 666a cabc bfb4 e83d
000000f0: 8091 74bd 08d5 11be 3dcf 253d 97ef d83d
00000100: 9b24 2dbd c9ef 123d 5259 92bc bd99 2f3e
00000110: 2332 803e 9368 33be 83d1 143c e19c b33c
00000120: fb27 9cbd 7827 2cbe ad8a abbc 4353 45bc
00000130: 92db 17be ad4d 33be 5dc5 7c3c 7650 6e3b
00000140: 5db5 6d3c 5068 1a3e 74ad 10bd e18d 13bd
00000150: 422d 52bd 4461 39bd caac 103d 0551 acbd
00000160: 24f0 a03c b454 b93c ae70 88bb 3935 25be
00000170: 5e49 f23e fe6e b03e aa0d d6bb f1be 51bd
00000180: 57cf bebd 4496 5a3e 5f05 ccbc 0021 dfba
00000190: 1512 983d 980a 4f3c da51 af3c 236b 903c
000001a0: ee69 16be 7371 ad3e 0361 93bd 6ce8 533d
000001b0: 572b af3d a56c 4dbe e223 7e3d dac4 1cbd
000001c0: 9305 23be 0e70 a53e fdde 553c 1637 b13d
000001d0: 4e28 843e 00cd 8bbf a454 1abd b8f4 94bd
000001e0: 1406 763d 109b 0ebc c111 8a3d 3f6e ed3d
000001f0: 1a19 b03e 0c28 fc3d 0fce 92bd 2fce 173d
00000200: 98a0 863d 9b5e b8bd c94f 6e3d 9dfe ce3c
00000210: c265 1e3c 95b2 993d 20a2 96bd ec40 1f3d
00000220: abed 823d a95b bfbc bace e7bb 4933 ef3d
00000230: ada7 71be 921d 1bbe 6e61 7fbd 70d8 21bc
00000240: ce44 f73b 4a14 a93d 133f c7bd 05f5 ca3d
00000250: 9d0f c83d eefd 6cbe cc4c 45bd 16db 463d
00000260: 31ce 343c 438f 333a 9bc0 f13c a89a 9a3d
00000270: 911f 1e3e 0a45 babe 2ab2 63bd 890d 38bd
00000280: 0b02 a23c 4599 983d ca57 eebc c4ad 603c
00000290: be35 1f3e f9bb 76be 6325 2fbd 939a e03b
000002a0: 6909 20be d6a7 a93c 0eff 30bb 381a 8fbd
000002b0: 713b debc ef3e b1be 5aac b6b9 09af 5d3d
000002c0: ca99 08bd b065 86bd 4619 23bd c4bd 0bbc
000002d0: 2650 c73d b0d0 47bc 1cd2 9ebc f333 f6bc
000002e0: a011 11be 4942 733d 54ba a2bd ed1f 7bbd
000002f0: 6417 983e 6af3 833e c506 513d e592 d43c
00000300: cae6 bfbc c15c 1b3d c8b8 9c3c 88b6 dabd
00000310: 74e5 fb3c 69f6 1d3e f864 9c3a 54ee 263d
00000320: 222a febc 6ea0 853c 47da 49bd 8c4b 25bd
00000330: fd8b 843c a031 853e 28bf 03bb b6d5 e9b9
00000340: a888 8f3d 542b 28bd 7db8 0c3d 1272 b6bd
00000350: 3849 40bd a7cd eebd c619 23bd be44 163d
00000360: 1db3 aa3d 3344 2c3d acc1 43bc 4785 3dbd
00000370: c451 eebd 4be7 b1bd 3143 623c 9cea 7cba
00000380: c210 843e dac2 ab3d 2239 c83c 945d dc39
00000390: 6d8e 2dbe 5332 0c3d bfd3 043d 25ae 0fbd
000003a0: 0e6f 7e3e 2c0a 653d 5117 253d 0488 4fbd
000003b0: 2bdb babe ed1c 153e 9b67 ec3b 74e9 9d3b
000003c0: 7b6d 84bd 08d5 d13d 9a7d 13bd 7be9 ebbc
000003d0: ebb0 783d dd59 46bc 04e5 503b 7906 cd3b
000003e0: aee5 963b bc50 5e3e b913 6d3c 7a9a 6cbd
000003f0: e8c2 1fbb ca1d 5cbe 04a6 62bc f9be 4dbd

fcs1.bias f4 [128]
-0.2812162 0.33388454 -0.07557082 -0.19159593 -0.018058492 0.15956052 -0.071068555 -0.300831
-0.012177113 0.006287105 -0.005165671 -0.28455362 -0.0009455682 -0.073771015 0.14727132 0.32268775
-0.08160457 0.2469477 0.18073325 0.2949617 0.17290974 0.11725032 0.26635447 0.2523012
-0.35924515 0.12142097 -0.22373462 -0.030503992 0.019316584 0.07588443 0.016004434 0.07151304
-0.464252 0.18846934 0.07983692 0.196565 -0.1552094 -0.24004325 -0.3578973 0.20153043
-0.16456166 0.001827778 -0.058435444 -0.17845221 -0.27311724 0.10784821 -0.1488269 -0.46482214
-0.13922687 -0.03649397 0.14710389 -0.33371475 0.20751958 0.03024401 -0.054855406 -0.17262448
-0.12766537 0.40431052 0.13063386 0.22012337 0.026460811 -0.30731583 0.03477043 -0.21731518
0.058167193 -0.1159031 -0.103983425 -0.14200537 -0.1969646 -0.34995797 -0.09040176 -0.41300842
0.1401693 0.010253809 0.13303715 -0.4104389 -0.20057467 -0.46840474 0.1668505 0.01904518
-0.097995885 0.12541728 -0.22552016 0.40282348 0.094988324 0.2234648 0.19360764 -0.2779294
0.053267933 0.032469887 0.1037616 -0.046962664 0.04486376 0.3437664 -0.065664485 -0.11476656
0.07264207 -0.15179707 -0.10986947 0.074374124 0.088817134 -0.18806815 -0.019569883 -0.06279752
-0.020961702 -0.27879003 -0.051587183 -0.16735101 -0.39686468 -0.27985665 -0.25599036 0.03940446
0.22632258 0.0685941 0.147736 -0.26150492 -0.054816134 -0.15624143 -0.0997651 0.1698766
-0.3247749 0.15959908 0.095146015 0.09124309 0.23794952 -0.19814306 0.114798464 -0.012241074
00000000: 92fb 8fbe eaf2 aa3e e0c4 9abd b931 44be
00000010: 67ef 93bc d563 233e 648c 91bd 8506 9abe
00000020: 8482 47bc 0f04 ce3b ca44 a9bb 03b1 91be
00000030: 02e0 77ba 4215 97bd 4bce 163e 5437 a53e
00000040: 4c20 a7bd dcdf 7c3e 2312 393e 3805 973e
00000050: 400f 313e f020 f03d 9d5f 883e 9f2d 813e
00000060: fbee b7be 8fab f83d b01a 65be 82e3 f9bc
00000070: d03d 9e3c 4c69 9b3d bb1b 833c 6e75 923d
00000080: 70b2 edbe 1bfe 403e 8a81 a33d 5648 493e
00000090: 37ef 1ebe e6cd 75be 513e b7be fe5d 4e3e
000000a0: da82 28be 0d92 ef3a 015a 6fbd 2dbc 36be
000000b0: 06d6 8bbe 86df dc3d 1466 18be 2bfd edbe
000000c0: 7d91 0ebe b37a 15bd 67a2 163e a9dc aabe
000000d0: 0380 543e 49c2 f73c 10b0 60bd 79c4 30be
000000e0: b6ba 02be ca01 cf3e e2c4 053e 0568 613e
000000f0: 58c4 d83c 8058 9dbe 706b 0e3d df87 5ebe
00000100: b940 6e3d 9b5e edbd 43f5 d4bd db69 11be
00000110: 17b1 49be b12d b3be 8f24 b9bd d775 d3be
00000120: 8a88 0f3e 98ff 273c e43a 083e 0c25 d2be
00000130: 7263 4dbe bfd2 efbe dcda 2a3e a304 9c3c
00000140: 11b2 c8bd 636d 003e c2ee 66be e13e ce3e
00000150: 3d89 c23d f5d3 643e 1541 463e c34c 8ebe
00000160: 7a2f 5a3d 25ff 043d f680 d43d ec5b 40bd
00000170: 10c3 373d 2602 b03e 1a7b 86bd bb0a ebbd
00000180: 5ec5 943d b170 1bbe 3f03 e1bd 7651 983d
00000190: c2e5 b53d f094 40be 0551 a0bc fc9b 80bd
000001a0: e0b7 abbc 91bd 8ebe 154d 53bd 105e 2bbe
000001b0: d931 cbbe 5f49 8fbe 2b11 83be 9266 213d
000001c0: 1bc1 673e 107b 8c3d 1b48 173e f9e3 85be
000001d0: e286 60bd c1fd 1fbe a551 ccbd 22f4 2d3e
000001e0: e548 a6be f16d 233e eadb c23d a8dd ba3d
000001f0: 0aa9 733e 04e6 4abe 751b eb3d c98e 48bc

fc2.weight f4 [32, 130]
-0.36616173 0.20998201 0.039746042 -0.04765512 -0.3333896 0.25623322 0.18369196 -0.122412786
-0.1260831 -0.21835415 -0.04447731 0.11661575 -0.14911658 -0.22824515 -0.2581507 -0.019443244
0.07311573 -0.08995969 0.17616314 -0.11285248 -0.19728643 0.16437615 -0.12032744 -0.10809401
-0.0633901 0.13026144 -0.23730114 0.034453932 0.05737698 0.1232929 0.05448471 0.13906676
0.003126857 0.13260376 0.056891486 0.014386842 0.009649253 -0.100709826 -0.010580709 0.010396596
-0.085749865 -0.15881374 -0.014273987 -0.0015185361 -0.18333578 -0.026581176 -0.13146712 -0.7792956
-0.3153594 0.12234708 0.21890351 -0.23045444 0.099779576 0.08346106 -0.07884577 -0.010504984
0.049608145 0.20294492 -0.25290796 -0.033492826 -0.3564167 -0.17741898 -0.055613033 0.07026203
-0.36961854 0.08859984 0.2516719 0.09461699 -0.20064758 -0.2141001 0.02848886 -0.06499317
-0.21307795 0.03527914 -0.19503978 -0.03562899 0.19476213 0.08071402 0.10409616 0.15336044
0.010108448 0.1579112 -0.34479105 -0.05184598 -0.050996207 -0.26739472 -0.07494619 -0.040701322
-0.10331948 -0.28881198 0.060403492 -0.20522282 0.12494754 0.012455479 -0.07458406 0.010771132
-0.17359836 -0.18462774 -0.0073246094 0.0012164928 -0.07942563 0.0438867 0.03801351 -0.13285686
0.09381065 0.06830805 -0.0606261 0.017166149 0.06037638 -0.11312481 -0.10760507 0.0657904
0.08421694 -0.2027833 0.005659911 -0.04950474 -0.14372863 0.057418533 -0.070157535 -0.044517443
0.09781633 0.1534973 -0.18037948 0.109158374 -0.38971603 0.022179687 -0.30861947 -0.13473159
-0.65372956 -0.08204857 -0.104455754 -0.06062985 0.089785725 -0.1853326 -0.46438527 -0.13120142
0.09985628 -0.020525573 0.0040530404 -0.4850439 0.08733007 -0.17777976 -0.51841605 -0.686
0.24633692 -0.13679177 0.19823511 -0.3211997 -0.09625852 0.09688493 -0.18211398 0.053775053
-0.013583745 -0.046482537 -0.10688467 -0.15909635 -0.21679974 0.01505414 0.09538428 -0.59166145
0.1630225 0.04719875 0.032088906 -0.014468571 -0.27641055 -0.0626225 0.14027986 -0.06742201
-0.22785473 -0.044511486 -0.049912214 0.118999034 0.31791925 0.107340306 0.018287342 0.20393184
0.15672088 -0.12741673 -0.04544169 -0.041414395 0.018662332 0.08870462 -0.30902568 0.030423382
-0.028121734 -0.2147425 -0.008499619 0.37356243 0.16045114 -0.08289878 -0.078933604 0.066694915
-0.103883326 0.041843187 0.14272235 0.04101465 0.017483719 -0.12368635 0.046064995 -0.061676815
-0.09872056 -0.003420163 -0.17206605 0.005103559 0.08039783 0.051879957 0.0910344 -0.038294632
0.017958326 0.07204324 0.17682555 0.0825417 0.1906268 -0.025849508 -0.0026652247 -0.15595327
-0.10447388 -0.08427125 -0.6510148 -0.008107193 0.118859224 -0.23515567 -0.021484511 0.083747976
-0.19332844 -0.055580188 0.08631776 -0.14782894 -0.21473673 -0.22005664 0.057245694 0.06739713
-0.10822996 -0.12490717 -0.30765957 -0.04487406 -0.15207317 0.13678013 -0.114622004 -0.065682195
-0.14113013 0.45724618 -0.014283131 -0.083987854 -0.034909155 0.12651874 -0.11830613 0.024044061
0.05428083 0.01360635 0.077184014 0.13327618 0.15934218 -0.01013256 0.09261166 -0.010038434
00000000: 8d79 bbbe 8605 573e bfcc 223d 0432 43bd
00000010: 0bb2 aabe 0031 833e bf19 3c3e 8eb3 fabd
00000020: ee1b 01be 3b98 5fbe d72d 36bd 3dd4 ee3d
00000030: 04b2 18be 19b9 69be 542c 84be 7047 9fbc
00000040: b3bd 953d c93c b8bd 1c64 343e 331f e7bd
00000050: 7405 4abe 3952 283e 3c6e f6bd 6460 ddbd
00000060: abd2 81bd 4163 053e 12ff 72be 911f 0d3d
00000070: 2004 6b3d fd80 fc3d 5c2b 5f3d 8467 0e3e
00000080: f5eb 4c3b 48c9 073e 0c07 693d cab6 6b3c
00000090: e717 1e3c f440 cebd b65a 2dbc 7c56 2a3c
000000a0: a09d afbd 12a0 22be 71dd 69bc 9e09 c7ba
000000b0: 60bc 3bbe c4c0 d9bc 519f 06be eb7f 47bf
000000c0: ca76 a1be 1b91 fa3d 3e28 603e 40fc 6bbe
000000d0: 3c59 cc3d a2ed aa3d e479 a1bd 191d 2cbc
000000e0: e931 4b3d cbd0 4f3e 277d 81be c62f 09bd
000000f0: 407c b6be 52ad 35be 7eca 63bd 8ae5 8f3d
00000100: a43e bdbe d573 b53d 24db 803e 8dc6 c13d
00000110: 8f76 4dbe 0e3d 5bbe 7861 e93c 241b 85bd
00000120: 1b31 5abe dc80 103d 82b8 47be b4ef 11bd
00000130: b96f 473e 644d a53d 5e30 d53d 850a 1d3e
00000140: e79d 253c 79b3 213e 7488 b0be 735c 54bd
00000150: 66e1 50bd f6e7 88be 637d 99bd 6eb6 26bd
00000160: 2a99 d3bd 2adf 93be a769 773d ee25 52be
00000170: 7fe4 ff3d 1112 4c3c 87bf 98bd 6779 303c
00000180: c5c3 31be 0e0f 3dbe 4703 f0bb ba72 9f3a
00000190: e8a9 a2bd 8ac2 333d 0eb4 1b3d a10b 08be
000001a0: cc1f c03d 17e5 8b3d 1353 78bd 06a0 8c3c
000001b0: 394d 773d fbad e7bd 0c60 dcbd 1ebd 863d
000001c0: ee79 ac3d 6da6 4fbe c676 b93b 7bc5 4abd
000001d0: 992d 13be b22f 6b3d c1ae 8fbd ec57 36bd
000001e0: ee53 c83d 652e 1d3e 66b5 38be 6d8e df3d
000001f0: dc88 c7be 2db2 b53c 5f03 9ebe 14f7 09be
00000200: d25a 27bf 1509 a8bd e6ec d5bd 0157 78bd
00000210: 94e1 b73d d4c7 3dbe e8c3 edbe aa59 06be
00000220: 7381 cc3d 3f25 a8bc 5ecf 843b ad57 f8be
00000230: 1cda b23d e60b 36be eab6 04bf b29d 2fbf
00000240: bf3f 7c3e 2413 0cbe 25fe 4a3e 4974 a4be
00000250: 3023 c5bd 9b6b c63d 167c 3abe 3b43 5c3d
00000260: 5b8e 5ebc 7964 3ebd 5ae6 dabd 27ea 22be
00000270: c000 5ebe a4a5 763c d558 c33d 2077 17bf
00000280: 5fef 263e 7a53 413d a86f 033d 960d 6dbc
00000290: af85 8dbe 3a40 80bd 86a5 0f3e 8d14 8abd
000002a0: c052 69be ad51 36bd c070 4cbd c4b5 f33d
000002b0: 50c6 a23e 3cd5 db3d 56cf 953c 82d3 503e
000002c0: 707b 203e 8879 02be 1121 3abd 24a2 29bd
000002d0: bfe1 983c c5aa b53d 9d38 9ebe 753a f93c
000002e0: 8d5f e6bc 75e5 5bbe fc41 0bbc 9343 bf3e
000002f0: 4e4d 243e d6c6 a9bd f1a7 a1bd 5897 883d
00000300: c8c0 d4bd c363 2b3d cf25 123e fafe 273d
00000310: 043a 8f3c 454f fdbd a6ae 3c3d d4a0 7cbd
00000320: 012e cabd d024 60bb 1532 30be c13b a73b
00000330: 9ea7 a43d 1480 543d 3e70 ba3d d5da 1cbd
00000340: 571d 933c 688b 933d c211 353e 9f0b a93d
00000350: ac33 433e 59c2 d3bc 0dab 2ebb 37b2 1fbe
00000360: 67f6 d5bd 6896 acbd e8a8 26bf 08d4 04bc
00000370: 776c f33d a6cc 70be 4900 b0bc 0f84 ab3d
00000380: e4f7 45be 0da8 63bd 5ec7 b03d 7860 17be
00000390: f2e3 5bbe 8756 61be 767a 6a3d 8207 8a3d
000003a0: aba7 ddbd 55cf ffbd 8e85 9dbe ddcd 37bd
000003b0: 12b9 1bbe 1710 0c3e f1be eabd 6384 86bd
000003c0: 6b84 10be 2c1c ea3e cb03 6abc d301 acbd
000003d0: e7fc 0ebd 218e 013e 7c4a f2bd 0df8 c43c
000003e0: 9355 5e3d 2bed 5e3c a712 9e3d 8d79 083e
000003f0: 992a 233e 0903 26bc 2fab bd3d 3e78 24bc

fc2.bias f4 [32]
-0.051730037 0.037722893 -0.2747949 0.2285713 0.06751816 0.05025621 -0.023994204 -0.019728888
0.011681906 -0.13066924 -0.044163838 0.0058953906 0.18635276 0.06254619 -0.06927088 0.0068222536
0.03855578 -0.10149276 0.12738125 0.014247517 -0.320739 0.12880245 0.051848363 0.13441153
-0.18833657 -0.0715709 -0.14924438 -0.065785214 -0.031664375 0.25910318 0.11813281 -0.06902979
00000000: e0e2 53bd 5283 1a3d ebb1 8cbe 980e 6a3e
00000010: f646 8a3d 75d9 4d3d 7e8f c4bc 7a9e a1bc
00000020: 7765 3f3c 28ce 05be 24e5 34bd 1f2e c13b
00000030: 42d3 3e3e 3818 803d e4dd 8dbd 368d df3b
00000040: aaec 1d3d 70db cfbd 3b70 023e 6b6e 693c
00000050: e737 a4be cae4 033e f35e 543d 2da3 093e
00000060: 4ddb 40be c493 92bd 85d3 18be 66ba 86bd
00000070: 81b2 01bd 2ca9 843e 9def f13d 7e5f 8dbd

fc3.weight f4 [1, 32]
-0.044781353 0.018274743 -0.010985065 0.04555673 -0.018041393 0.090380386 -0.009093156 -0.008563993
-0.05567309 0.01615486 0.078737125 -0.008896545 -0.025024708 -0.016264819 0.010814334 0.013920009
-0.011615779 -0.020409636 0.018149622 -0.0130337095 -0.021207077 0.013747382 0.028527148 0.020370116
-0.029551163 -0.013871979 -0.030483065 0.026444118 0.05709869 -0.042061772 0.015584697 -0.01720842
00000000: a76c 37bd eab4 953c b4fa 33bc b299 3a3d
00000010: 8bcb 93bc 5a19 b93d 76fb 14bc fd4f 0cbc
00000020: 7709 64bd 3257 843c ee40 a13d d0c2 11bc
00000030: 9e00 cdbc cc3d 85bc 9b2e 313c c010 643c
00000040: 1c50 3ebc 1c32 a7bc 84ae 943c 578b 55bc
00000050: 77ba adbc b33c 613c c4b1 e93c 3bdf a63c
00000060: 4815 f2bc 4c47 63bc 9fb7 f9bc 56a1 d83c
00000070: 51e0 693d f748 2cbd f556 7f3c acf8 8cbc
