checkpoint_actor0.pth (torch_old, 30564 bytes, 6 tensors)

fc1.weight f4 [128, 24]
-0.117383696 -0.20032656 0.091771536 -0.0020181916 0.8680887 0.25324047 0.027103245 0.028023396
-0.16998062 -0.28616872 0.06287699 0.237058 0.21400787 0.11197081 0.094805725 0.20472637
-0.10056197 -0.15979661 -0.055569552 0.13631114 -0.26179793 -0.0052806316 -0.07456236 0.1849935
0.081757404 0.06669968 0.056409698 -0.0055055427 0.09953144 -0.14214301 0.08578648 0.030852146
0.114013605 0.16702096 0.11478462 0.17348626 -0.12486624 -0.028412603 0.03787643 0.17883399
0.09208406 0.112700604 0.030068541 -0.07947796 -0.29245642 0.4334227 0.12741485 -0.009928825
0.026314177 0.011018613 -0.088393815 -0.13852382 -0.23717886 -0.2659703 -0.1099149 0.0028614658
-0.1342295 -0.16688538 -0.06194616 -0.030397559 -0.0720689 -0.123713486 -0.08819246 0.07274278
-0.22053076 -0.15440752 -0.13292271 -0.001870017 0.24407713 -0.17398265 -0.16155751 0.065782376
-0.3233642 -0.3024557 -0.010036878 -0.16945577 0.4570946 0.12915365 0.043930113 -0.11052044
-0.18800758 -0.13228671 0.02407463 -0.21634744 0.42620853 0.08387409 -0.059741057 -0.31641912
-0.31801617 -0.14218077 -0.033858225 -0.13506903 0.099443465 0.30211732 -0.04155861 -0.07501448
-0.043568533 -0.39570224 0.07890583 0.020968894 -0.12467173 0.18881656 -0.07065547 -0.1012511
0.0456391 -0.24754795 -0.065407574 0.0718164 -0.13514479 0.23832726 -0.049727432 0.0004918295
0.09663775 -0.34292835 -0.034389 -0.2167301 -0.13475832 0.63011634 -0.08250574 -0.2093654
0.31091654 -0.21957271 -0.0024527032 4.7260095e-05 -0.0050334223 -0.12953591 0.10767649 -0.10369922
0.21034166 -0.28117004 0.06125608 -0.04926189 -0.19203058 -0.19293694 0.08058808 -0.18327603
0.33881217 -0.3024232 0.12328415 0.012412889 -0.40253532 -0.06663058 0.03327691 -0.070882544
0.06391079 -0.09158555 0.07559395 0.13557255 0.31431097 0.114964224 -0.08367065 0.11275599
0.0769376 -0.053685397 0.14192303 0.0033465542 0.5233201 0.23620601 0.06305153 -0.05849282
-0.06625457 -0.013164869 -0.08015134 0.06282436 0.65297484 0.49330497 -0.06653935 0.1313806
0.04332806 -0.45250574 0.0070301187 -0.041767154 0.66753584 -0.09071055 -0.11964563 0.046107303
0.41518533 0.051825777 0.027802587 0.11954208 0.34595886 -0.20908958 -0.02274855 0.15945
-0.025455453 -0.027702454 -0.0101919025 0.1696909 -0.15541299 0.19978692 -0.13061674 0.10774057
-0.062393058 0.6999646 0.021694534 0.24735741 0.19288853 -0.39560953 0.014835345 0.09996689
-0.014720568 0.8874608 -0.015446334 0.13809875 0.1853144 -0.64115846 0.108552866 0.23911183
-0.044145502 0.6469459 -0.0021863563 -0.44003668 0.2612678 -0.69379914 -0.023711398 -0.49182838
-0.018406972 -0.5433239 -0.01967136 -0.190474 -0.28724653 -0.0626555 0.06758685 -0.16193669
0.041737486 -0.39966375 -0.032727458 0.11461771 -0.2908007 -0.06800822 0.11481897 0.15994158
-0.053849414 -0.39243641 0.048319723 0.068442486 0.09083276 -0.2392811 0.08822935 0.16102533
0.039968483 -0.3737901 -0.15038492 -0.0579487 0.031895414 0.5757208 -0.024610095 -0.11499268
0.14298458 -0.232479 0.007720212 0.01165457 -0.15457739 0.39814618 0.053025294 0.13327473
00000000: dd66 f0bd 6822 4dbe b7f2 bb3d a343 04bb
00000010: 103b 5e3f bca8 813e a007 de3c 5291 e53c
00000020: 660f 2ebe b584 92be a7c5 803d 55bf 723e
00000030: e124 5b3e f450 e53d 8129 c23d caa3 513e
00000040: 6ff3 cdbd b9a1 23be e69c 63bd 2695 0b3e
00000050: 610a 86be 2609 adbb 27b4 98bd f06e 3d3e
00000060: 6d70 a73d d899 883d db0d 673d d767 b4bb
00000070: 24d7 cb3d f08d 11be d2b0 af3d a4bd fc3c
00000080: f77f e93d 8b07 2b3e 3314 eb3d 62a6 313e
00000090: dfb9 ffbd 8cc1 e8bc 5124 1b3d 4220 373e
000000a0: 9196 bc3d 93cf e63d 4d52 f63c 57c5 a2bd
000000b0: d9bc 95be 95e9 dd3e 0a79 023e 83ac 22bc
000000c0: d490 d73c 6a87 343c d107 b5bd 30d9 0dbe
000000d0: 04df 72be 422d 88be 101b e1bd 6e87 3b3b
000000e0: 7573 09be 00e4 2abe 42bb 7dbd 4d04 f9bc
000000f0: dc98 93bd 7f5d fdbd 409e b4bd 2bfa 943d
00000100: d1d2 61be 011d 1ebe e41c 08be 5c1b f5ba
00000110: 5bef 793e 8228 32be 556f 25be e9b8 863d
00000120: fe8f a5be 79db 9abe b871 24bc d085 2dbe
00000130: 4e08 ea3e db40 043e 10f0 333d 8a58 e2bd
00000140: 0f85 40be 2b76 07be 2938 c53c 2f8a 5dbe
00000150: 0138 da3e 2ec6 ab3d 0ab3 74bd b001 a2be
00000160: 04d3 a2be d697 11be ecae 0abd 894f 0abe
00000170: 04a9 cb3d 1faf 9a3e 5c39 2abd 31a1 99bd
00000180: eb74 32bd 7c99 cabe 6199 a13d f5c6 ab3c
00000190: e453 ffbd 2159 413e d1b3 90bd bd5c cfbd
000001a0: 11f0 3a3d 367d 7dbe 68f4 85bd 7a14 933d
000001b0: 6563 0abe 100c 743e feae 4bbd 1eee 003a
000001c0: 03ea c53d 4e94 afbe 7bdb 0cbd 7fee 5dbe
000001d0: 16fe 09be 4e4f 213f c5f8 a8bd e263 56be
000001e0: 7430 9f3e abd7 60be 88bd 20bb 2439 4638
000001f0: 68ef a4bb 10a5 04be 7e85 dc3d 4260 d4bd
00000200: ce63 573e 85f5 8fbe a8e7 7a3d d6c6 49bd
00000210: aaa3 44be 4391 45be 5d0b a53d b6ac 3bbe
00000220: ca78 ad3e 37d7 9abe 677c fc3d 6e5f 4b3c
00000230: 1c19 cebe 9d75 88bd 5f4d 083d de2a 91bd
00000240: a9e3 823d 3491 bbbd 00d1 9a3d 88d3 0a3e
00000250: 5eed a03e 5d72 eb3d 855b abbd 9dec e63d
00000260: 7691 9d3d 38e5 5bbd 4554 113e dd51 5b3b
00000270: 4ef8 053f fddf 713e 2921 813d 2b96 6fbd
00000280: 7ab0 87bd 76b1 57bc 6326 a4bd 0faa 803d
00000290: 5c29 273f 7892 fc3e c845 88bd a388 063e
000002a0: c478 313d d5ae e7be e95c e63b 0914 2bbd
000002b0: a1e3 2a3f 74c6 b9bd c508 f5bd 03db 3c3d
000002c0: 2c93 d43e 4447 543d 40c2 e33c 7ad2 f43d
000002d0: 8521 b13e 941b 56be 2b5b babc dc46 233e
000002e0: f487 d0bc 42f0 e2bc f0fb 26bc 74c3 2d3e
000002f0: 9524 1fbe f194 4c3e 65c0 05be 17a7 dc3d
00000300: dd8f 7fbd e130 333f bcb8 b13c 434b 7d3e
00000310: 9284 453e 558d cabe f20f 733c 71bb cc3d
00000320: 8a2e 71bc a230 633f 9f12 7dbc c269 0d3e
00000330: 0fc3 3d3e f622 24bf f750 de3d bbd9 743e
00000340: ead1 34bd 3f9e 253f f948 0fbb 7d4c e1be
00000350: e5c4 853e d29c 31bf 683e c2bc eed0 fbbe
00000360: 38ca 96bc 4617 0bbf d525 a1bc 9e0b 43be
00000370: fa11 93be 8751 80bd f96a 8a3d bbd2 25be
00000380: edf4 2a3d baa0 ccbe 3a0d 06bd b1bc ea3d
00000390: d4e3 94be e547 8bbd 3526 eb3d bac7 233e
000003a0: 3491 5cbd 6ded c8be e7ea 453d 932b 8c3d
000003b0: 8706 ba3d 1b06 75be 97b1 b43d d3e3 243e
000003c0: feb5 233d 6a61 bfbe 81fe 19be 9e5b 6dbd
000003d0: c4a4 023d 7062 133f 1c9b c9bc 4881 ebbd
000003e0: 8d6a 123e fa0e 6ebe d5f9 fc3b cff2 3e3c
000003f0: 8949 1ebe d1d9 cb3e 0d31 593d 2c79 083e

fc1.bias f4 [128]
-0.02565414 -0.05090049 0.05473491 -0.2521219 -0.03543055 -0.02289812 0.08952984 -0.27167267
-0.11667447 0.009520848 -0.072192125 0.023583893 -0.06864512 -0.03228308 0.080375396 0.14291994
0.17898896 -0.063749075 0.022497883 -0.25697976 -0.12921602 0.03558088 0.22413172 0.18553273
-0.27783313 0.09648102 -0.40770352 0.23106317 -0.05212613 0.14393263 -0.27854657 -0.0823801
0.12857556 0.18470876 -0.11691397 0.29686242 -0.121095136 -0.1762513 -0.029904973 -0.051904436
-0.025424961 -0.16505556 -0.37306625 -0.15964721 -0.019372027 0.17820315 0.18802536 -0.18721512
0.14192954 0.16958636 0.0058424603 -0.13542159 -0.04992653 -0.20873594 0.012920794 0.1451149
0.17359275 0.3101386 -0.09406997 0.3401048 -0.1671794 -0.075570785 -0.08731639 -0.39086366
0.27053133 -0.2978936 0.09269962 0.12787744 -0.09603609 -0.124042355 -0.30084708 -0.06008158
-0.057080798 0.039429754 0.23406604 0.016642181 -0.027428336 0.039086778 -0.10236535 -0.044372257
-0.085136175 0.13490634 -0.1342635 0.031502187 0.17692634 0.25233305 0.08843642 -0.03364522
-0.16850005 0.042668156 -0.39118782 0.19390178 -0.116618186 0.059496198 -0.23256947 -0.08070243
0.13984407 0.019180326 0.25778824 0.15529828 0.16331398 -0.17439784 -0.17724557 -0.24215287
-0.07936242 -0.2152156 0.12682751 -0.3655799 0.09048833 -0.10969879 0.052361906 -0.017870309
0.17118764 0.230379 -0.15764235 -0.07627573 -0.101827666 -0.18392941 -0.13834377 0.029079674
-0.10118867 0.2868545 0.19292085 -0.03195316 -0.029611664 -0.17041081 0.01258503 -0.21775146
00000000: a228 d2bc 087d 50bd b731 603d 1f16 81be
00000010: a01f 11bd d794 bbbc 6c5b b73d ae18 8bbe
00000020: 06f3 eebd 55fd 1b3c 77d9 93bd 0233 c13c
00000030: d095 8cbd 433b 04bd db9b a43d 9b59 123e
00000040: e248 373e e08e 82bd 7b4d b83c da92 83be
00000050: 3451 04be 42bd 113d c982 653e 4bfc 3d3e
00000060: 2540 8ebe d797 c53d 84be d0be d39b 6c3e
00000070: 3582 55bd 1363 133e a89d 8ebe e6b6 a8bd
00000080: 50a9 033e 4b24 3d3e 9770 efbd 5afe 973e
00000090: ba00 f8bd 397b 34be 46fb f4bc bf99 54bd
000000a0: 0248 d0bc 5304 29be 8a02 bfbe 8f7a 23be
000000b0: 16b2 9ebc e37a 363e b889 403e 52b5 3fbe
000000c0: fa55 113e 0ca8 2d3e 1c72 bf3b f5ab 0abe
000000d0: c37f 4cbd e0be 55be bdb1 533c 0099 143e
000000e0: 4cc2 313e 7dca 9e3e c2a7 c0bd 3722 ae3e
000000f0: 1431 2bbe dbc4 9abd efd2 b2bd 481f c8be
00000100: 1583 8a3e 8385 98be 4cd9 bd3d 4ef2 023e
00000110: 92ae c4bd eb09 febd a108 9abe 1a18 76bd
00000120: 8ecd 69bd 1881 213d 02af 6f3e 2f55 883c
00000130: 64b1 e0bc 7519 203d eda4 d1bd afbf 35bd
00000140: e05b aebd e324 0a3e 5f7c 09be 7008 013d
00000150: 2e2c 353e cc31 813e 271e b53d 92cf 09bd
00000160: 478b 2cbe cec4 2e3d c549 c8be 308e 463e
00000170: 84d5 eebd 49b2 733d b126 6ebe 5147 a5bd
00000180: 4933 0f3e 0f20 9d3c d2fc 833e 8306 1f3e
00000190: c83b 273e 5995 32be dd7f 35be ecf6 77be
000001a0: c488 a2bd 7a61 5cbe 12df 013e 4a2d bbbe
000001b0: f251 b93d c2a9 e0bd 7079 563d c164 92bc
000001c0: d04b 2f3e 79e8 6b3e ff6c 21be 7336 9cbd
000001d0: 068b d0bd fe57 3cbe fda9 0dbe 7f38 ee3c
000001e0: 013c cfbd 98de 923e 0b8d 453e 51e1 02bd
000001f0: 2994 f2bc 2c80 2ebe 7131 4e3c 3dfa 5ebe

fc2.weight f4 [32, 128]
-0.8609167 -0.022290668 -0.059698153 -0.09681701 -0.029589828 -0.44108635 -1.3897477 0.30382565
0.049977027 -0.22852576 0.022025485 0.22988473 0.010430559 0.25501996 -0.041057304 0.07179609
0.13410482 -0.28644568 -0.21284834 2.800179e-05 0.33497596 -0.066535525 0.30069706 -0.35491037
-0.23489457 0.59886074 -0.36832052 -0.051200047 -0.33482915 -0.013482835 -0.25093278 0.05750059
-0.11537041 0.10606435 0.26186755 -0.26476863 0.109607734 0.19920912 0.03765521 0.17327581
-0.56281435 -0.6744027 0.15511265 -0.31241223 0.0021461973 0.0018688592 0.1371063 0.03836329
0.22728802 0.4634012 0.17991702 -0.30957213 0.23916097 0.005953938 -0.23326421 0.123353384
-0.124092095 0.023593273 -0.10738654 0.32376534 0.22324415 0.17608649 0.1726232 0.006219826
0.054899767 0.05914128 -0.121808276 -0.16719261 -0.37031266 -0.20564832 0.30301464 0.05843451
-0.050639797 0.0059278477 -0.38495767 0.2258535 -0.0060148556 0.25129107 -0.45310074 -0.08707692
0.1207386 -0.27355614 0.05364305 -0.13601072 0.2093373 -0.18954647 -0.060496487 0.04039516
0.44624996 -0.8346355 -0.12009329 0.25727907 0.23457709 -0.1630246 0.10455768 0.11714833
0.17927575 -0.021267144 0.13075137 -0.53701437 -0.11315701 -0.2417639 -0.26197755 -0.21050413
0.3452493 -0.40128416 -0.11769179 -0.15678309 -0.17953868 -0.055650596 0.05203303 0.22096835
0.07855416 -0.08278239 -0.14466126 0.039423563 0.008948102 -0.2772336 -0.13425799 0.05278826
-0.2559277 -0.29521263 -0.33701918 -0.14482677 0.069000706 -0.4488111 -0.2863391 -0.1520536
-0.2882882 0.21553467 -0.14604716 -0.32248634 0.22431427 0.108829744 -0.0043211547 0.50862855
0.5926354 0.021178003 -0.44036317 -0.36354557 0.24216096 0.22242734 0.4281722 0.3008197
-0.07630346 0.13995421 -0.19248559 -0.093741775 0.007882507 -0.622446 -0.35416794 -0.018788105
-0.20723073 0.33182108 -0.07626942 0.13796137 0.18371049 -0.28741753 0.10282694 -0.05149633
-0.43480387 -0.26573187 -0.22944742 0.26192626 0.14877722 -0.26199338 -0.16796166 0.18847148
-0.12729062 -0.14191353 -0.11018002 -0.43193623 -0.012216193 -0.11862614 -0.17347491 -0.006929366
-0.5493309 -0.019087585 0.23885812 0.06911217 0.21349043 -0.11723471 -0.23568286 -0.44041985
-0.105812244 -0.041545995 0.19373736 0.009090507 0.03313992 0.33933866 0.10535473 0.40310228
-0.14847589 0.05525874 -0.055022676 -0.44015804 -0.27030975 -0.17831904 -0.4665416 -0.01098343
0.18597275 0.3812675 -0.09826151 -0.15520878 -0.03996228 -0.28631753 0.2494859 0.31338614
0.02815622 -0.14078483 0.33756277 -0.14052045 -0.17391297 -0.20533693 0.18349047 -0.38601857
0.16075566 -0.029154308 -0.36421356 0.21869312 0.20312214 -0.39317197 0.079603024 -0.072012216
-0.10059348 -0.29086927 -0.036518343 -0.0818545 0.12668325 0.20041056 -0.5214136 -0.2834413
-0.017647495 0.26301822 0.14807467 -0.23224644 0.009105932 0.20472658 0.201924 0.3196257
0.11017691 0.0016912628 -0.18094316 -0.091224834 0.19702902 -0.008340587 -0.22480506 -0.52920717
-0.028855972 -0.22327143 -0.5586055 0.26982874 0.45552287 -0.08566671 -0.27990162 -0.19598475
00000000: 0965 5cbf eb9a b6bc 0d86 74bd ff47 c6bd
00000010: 5e66 f2bc 12d6 e1be 41e3 b1bf 098f 9b3e
00000020: b6b4 4c3d a802 6abe ca6e b43c e766 6b3e
00000030: efe4 2a3c fa91 823e b42b 28bd d409 933d
00000040: c652 093e 02a9 92be eaf4 59be 63e5 ea37
00000050: f881 ab3e c743 88bd f7f4 993e d0b6 b5be
00000060: 3488 70be f04e 193f 8294 bcbe 24b7 51bd
00000070: ba6e abbe 1ce7 5cbc 437a 80be bd85 6b3d
00000080: 5247 ecbd 4438 d93d 8113 863e c18f 87be
00000090: 057a e03d 7afd 4b3e 593c 1a3d 376f 313e
000000a0: 9a14 10bf a8a5 2cbf dad5 1e3e 7ff4 9fbe
000000b0: 37a7 0c3b 82f4 f43a 9865 0c3e d322 1d3d
000000c0: 31be 683e ec42 ed3e 2b3c 383e 3d80 9ebe
000000d0: 9de6 743e 4019 c33b d0dc 6ebe b3a0 fc3d
000000e0: ff23 febd ae46 c13c 79ed dbbd 92c4 a53e
000000f0: 1d9a 643e 0450 343e 23c4 303e afcf cb3b
00000100: 94de 603d 203e 723d 9e76 f9bd 8a34 2bbe
00000110: 9f99 bdbe 7995 52be bc24 9b3e 0659 6f3d
00000120: ad6b 4fbd 643e c23b 2c19 c5be 2446 673e
00000130: 4418 c5bb 39a9 803e d2fc e7be 6255 b2bd
00000140: cd45 f73d 8d0f 8cbe d1b8 5b3d 6546 0bbe
00000150: 845c 563e 7818 42be 2acb 77bd 6575 253d
00000160: e07a e43e acaa 55bf 79f3 f5bd 15ba 833e
00000170: fa34 703e ecef 26be 5622 d63d 77eb ef3d
00000180: 1094 373e 6f38 aebc b0e3 053e c679 09bf
00000190: ddbe e7bd f590 77be ec21 86be 658e 57be
000001a0: 84c4 b03e 1e75 cdbe 6508 f1bd bf8b 20be
000001b0: fdd8 37be e1f1 63bd 9620 553d 8745 623e
000001c0: 01e1 a03d d089 a9bd 1522 14be 9a7a 213d
000001d0: 0f9b 123c 90f1 8dbe ed7a 09be 8138 583d
000001e0: f508 83be 1c26 97be c78d acbe 784d 14be
000001f0: 3e50 8d3d 92ca e5be 0a9b 92be f0b3 1bbe
00000200: 839a 93be 1fb5 5c3e 638d 15be ee1c a5be
00000210: a4b2 653e 21e2 de3d 7998 8dbb 7b35 023f
00000220: f4b6 173f 7e7d ad3c 4877 e1be a522 babe
00000230: 0bf9 773e fec3 633e 6339 db3e 0a05 9a3e
00000240: fd44 9cbd 2850 0f3e f11a 45be b0fb bfbd
00000250: a125 013c 9f58 1fbf 8055 b5be 83e9 99bc
00000260: 4b34 54be 74e4 a93e 2433 9cbd bf45 0d3e
00000270: 9a1e 3c3e 6428 93be ee96 d23d d1ed 52bd
00000280: 9d9e debe 020e 88be 44f4 6abe 331b 863e
00000290: 0e59 183e ff23 86be 24fe 2bbe abfe 403e
000002a0: 7958 02be c851 11be 10a6 e1bd bf26 ddbe
000002b0: 6d26 48bc 43f2 f2bd 68a3 31be bc0f e3bb
000002c0: f3a0 0cbf 915d 9cbc 3997 743e ae8a 8d3d
000002d0: 3c9d 5a3e c018 f0bd d956 71be b67e e1be
000002e0: 17b4 d8bd 222c 2abd 1663 463e 5af0 143c
000002f0: babd 073d ccbd ad3e 38c4 d73d 6c63 ce3e
00000300: 100a 18be fd56 623d 755f 61bd 655c e1be
00000310: 0a66 8abe 4499 36be 8ade eebe d8f3 33bc
00000320: a46f 3e3e 7e35 c33e 553d c9bd 0def 1ebe
00000330: 7daf 23bd 3698 92be 3b79 7f3e 2674 a03e
00000340: e0a7 e63c e629 10be 07d5 ac3e 98e4 0fbe
00000350: 3e16 32be d843 52be ede4 3b3e 3aa4 c5be
00000360: 229d 243e 04d5 eebc 337a babe 17f1 5f3e
00000370: 40ff 4f3e d64d c9be e906 a33d 247b 93bd
00000380: f403 cebd d1ec 94be 4294 15bd 55a3 a7bd
00000390: 41b9 013e 6d38 4d3e 5d7b 05bf 381f 91be
000003a0: 7b91 90bc 53aa 863e e3a0 173e 03d2 6dbe
000003b0: 0c31 153c d8a3 513e 2ac5 4e3e fba5 a33e
000003c0: 6fa4 e13d 5dad dd3a 2a49 39be 16d4 babd
000003d0: fac1 493e f5a6 08bc 4c33 66be 1f7a 07bf
000003e0: 5c63 ecbc 44a1 64be c500 0fbf fe26 8a3e
000003f0: 4b3a e93e 0772 afbd 444f 8fbe 3ab0 48be

fc2.bias f4 [32]
0.032792382 -0.013733482 0.323456 0.11511286 -0.022539826 -0.02246648 0.20944008 -0.21553122
-0.014607045 0.15842439 0.115248956 0.020033289 0.11599385 0.07922315 -0.056231774 -0.01805432
0.0054671736 0.1010556 -0.0035028497 -0.125063 -0.20801307 0.15709686 -0.025098678 0.13344279
-0.038284153 0.16294466 -0.02690222 -0.12845716 -0.06455662 0.111038454 0.09290245 -0.03461602
00000000: 4e51 063d 6602 61bc 069c a53e 4bc0 eb3d
00000010: 71a5 b8bc a00b b8bc 7677 563e 37b4 5cbe
00000020: 6352 6fbc 013a 223e a507 ec3d da1c a43c
00000030: 2f8e ed3d bf3f a23d 4a53 66bd a7e6 93bc
00000040: fa25 b33b 3df6 ce3d 1190 65bb 8410 00be
00000050: 6101 55be 00de 203e be9b cdbc 3aa5 083e
00000060: d8cf 1cbd f7da 263e 0b62 dcbc 468a 03be
00000070: 4336 84bd 2168 e33d a443 be3d 87c9 0dbd

fc3.weight f4 [2, 32]
0.11778921 -0.18320857 0.10135852 0.2582006 -0.5298613 0.17450276 0.21029396 -0.3582805
0.0025123458 0.82732624 0.021530665 0.01906814 0.030223079 0.29046026 -0.19289708 0.02527274
0.31203628 0.028475031 -0.2152324 -0.12072439 -0.24596792 0.17428808 -0.36048448 0.124642186
-0.2674032 0.0779261 0.001496295 -0.08239145 -0.42211342 0.1660881 0.3612803 -0.08418293
-1.1335739 -0.6135321 -0.16248132 -0.15657677 0.55809635 0.026709177 -0.11479837 0.21597713
0.38842916 0.36404037 -0.6078006 -0.88746846 -0.33361533 -0.36118189 -0.22941242 0.28711864
0.27155617 0.24169618 -0.14663029 -0.0632294 0.27274343 -0.08850098 0.12094493 0.10971664
-0.54886377 -0.019970646 0.48501113 -0.38567156 -0.40984914 -0.28396663 -0.395927 0.44528452
00000000: 783b f13d 079b 3bbe 0e95 cf3d de32 843e
00000010: fda4 07bf dab0 323e 4d57 573e 8b70 b7be
00000020: 2ba6 243b a7cb 533f 1461 b03c ca34 9c3c
00000030: 6496 f73c 35b7 943e d086 45be c708 cf3c
00000040: 38c3 9f3e 7844 e93c e265 5cbe 593e f7bd
00000050: 04df 7bbe 9378 323e 6c91 b8be 6744 ff3d
00000060: 12e9 88be b897 9f3d 541f c43a d9bc a8bd
00000070: 401f d8be 0013 2a3e bbf9 b83e 1a68 acbd
00000080: f318 91bf 7110 1dbf 8161 26be a955 20be
00000090: 67df 0e3f 34cd da3c 681b ebbd 1c29 5d3e
000000a0: 30e0 c63e 8063 ba3e d298 1bbf 2231 63bf
000000b0: a1cf aabe d5ec b8be 17eb 6abe 3701 933e
000000c0: 6909 8b3e 347f 773e 4026 16be 6a7e 81bd
000000d0: 07a5 8b3e 0040 b5bd fab1 f73d 1eb3 e03d
000000e0: 5682 0cbf 7b99 a3bc 6153 f83e be76 c5be
000000f0: bfd7 d1be 1364 91be f2b6 cabe 55fc e33e

fc3.bias f4 [2]
0.04890752 -0.10122443
00000000: 4053 483d c14e cfbd
