checkpoint_actor1.pth (torch_old, 30570 bytes, 6 tensors)

fc1.weight f4 [128, 24]
0	0x3e2b9cac	0.16758984
1	0x3e214052	0.15747193
2	0x3c7cc4b5	0.015427758
3	0x3d4ad500	0.04951954
4	0xbe652dcb	-0.2238075
5	0x3d62558b	0.05525736
6	0xbd49b193	-0.049241614
7	0x3da2efe9	0.079559155
8	0xbc047a25	-0.008085762
9	0xbe17c325	-0.14820535
10	0xbdaef077	-0.08541959
11	0xbdb45ae3	-0.08806398
12	0xbe35ac82	-0.17741588
13	0x3e8ad7d0	0.27117777
14	0xbd5b19da	-0.05349145
15	0xbdf69355	-0.1203982
16	0xbcb1c9da	-0.021702696
17	0x3bf28e92	0.0074022496
18	0xbdeeea1b	-0.11665746
19	0xbd7a7ce8	-0.061154276
20	0x3e830ee0	0.25597286
21	0x3e240df9	0.16020955
22	0xbe0ae816	-0.13565096
23	0xbc4c5a7f	-0.012472748
24	0x3d4995b3	0.04921503
25	0x3efe80b1	0.4970756
26	0x3d35d947	0.044396665
27	0xbe3ab0be	-0.18231484
28	0xbe834ab0	-0.2564292
29	0xbe6f1783	-0.23348813
30	0x3d9716c9	0.07377393
31	0xbe1575ff	-0.14595793
32	0xbc15f194	-0.009151835
33	0x3e8d6da7	0.2762272
34	0x3e09b51a	0.13447991
35	0xbddd5fd6	-0.10809295
36	0x3daa835e	0.083258376
37	0xbe5a17d3	-0.2129815
38	0x3d6bce5b	0.057569843
39	0xbdd26c09	-0.10274512
40	0xbe140ce3	-0.14458041
41	0x3ded5c10	0.11589825
42	0xbd0684e9	-0.032841597
43	0xbe0e56e4	-0.13900334
44	0x3e9fd353	0.31215915
45	0xbe020a08	-0.12699139
46	0x3d841b0f	0.064504735
47	0xbd8e3c62	-0.06945111
48	0xbdb407b8	-0.08790535
49	0xbec699ef	-0.38789317
50	0xbc6875fc	-0.014188286
51	0xbf098ba8	-0.53728724
52	0xbc6961c6	-0.014244502
53	0xbe6f7645	-0.2338496
54	0xbd124537	-0.03571054
55	0xbecab40e	-0.39590496
56	0xbe00fdc4	-0.12596804
57	0xbf1367d9	-0.57580334
58	0x3c590876	0.013246646
59	0xbeac77d6	-0.33685178
60	0xbd8f3369	-0.069922276
61	0xbcdd0751	-0.026981028
62	0xbc54fa4d	-0.0129991295
63	0xbe6f513c	-0.23370832
64	0xbe477158	-0.19476831
65	0xbf3483fc	-0.7051389
66	0xbcc25a02	-0.02372456
67	0xbe46fa15	-0.19431336
68	0x3d81bbb0	0.06334627
69	0x3da71801	0.08158875
70	0xbd56765f	-0.05235898
71	0xbe01b347	-0.12666045
72	0x3b1ee3e6	0.0024244725
73	0x3dea7f39	0.11450047
74	0x3bb73a66	0.0055916784
75	0x3e175b88	0.1478101
76	0x3e74661b	0.23867075
77	0xbd0aaed2	-0.033858128
78	0x3d73f39c	0.059558496
79	0x3e53b546	0.20674619
80	0xbe199740	-0.14999104
81	0x3e13ea94	0.14444953
82	0xb9f5fab5	-0.00046916833
83	0x3e4d8e1e	0.20073745
84	0x3eaaf684	0.33391201
85	0xbd9f502d	-0.07778964
86	0xbdac9ddf	-0.08428549
87	0x3dce26cf	0.10065996
88	0xbe1767b2	-0.1478565
89	0x3e602888	0.21890461
90	0xbd81fb5c	-0.06346771
91	0xbe23f5dd	-0.16011758
92	0x3dff4256	0.124638245
93	0xbe2b0cb8	-0.1670407
94	0xbd91c065	-0.071167745
95	0xbdcceda7	-0.10006266
96	0x3cda035a	0.026612926
97	0x3e8486c1	0.2588406
98	0x3dca9527	0.0989173
99	0x3d9cbbda	0.07653017
100	0x3e8ce770	0.27520323
101	0x3dbb1202	0.09134294
102	0xbd4f708a	-0.050644435
103	0xbd3b2336	-0.045687877
104	0x3c409de0	0.01175639
105	0x3e46aff6	0.19403061
106	0xbcfc7673	-0.0308182
107	0x3e715919	0.23569144
108	0x3e1ece81	0.15508462
109	0x3ea60433	0.3242508
110	0xbc7806ad	-0.01513831
111	0x3e2850f0	0.16437125
112	0x3e5701db	0.20996802
113	0x3ed1f685	0.41008392
114	0x3d293287	0.041307952
115	0x3ed84c09	0.4224551
116	0xbd0d620c	-0.034517333
117	0x3ec5c4b1	0.38626626
118	0xbbdf14c3	-0.006807895
119	0x3edc117f	0.42982098
120	0x3d029342	0.031878717
121	0x3e540301	0.20704271
122	0xbd0d4a09	-0.034494434
123	0xbb996345	-0.0046810233
124	0x3ee1c5d0	0.4409623
125	0xbcbd8b81	-0.02313781
126	0x3d9ae556	0.075632736
127	0xbdde0e6b	-0.10842594
128	0xbdad1d93	-0.084529065
129	0x3ce87b4b	0.028379103
130	0xbb528827	-0.003212461
131	0xbcb0994d	-0.021557475
132	0x3d84197d	0.06450174
133	0x3e2ea361	0.17054512
134	0x3c840b79	0.016118752
135	0xbe1f4eb4	-0.15557367
136	0x3b408ee8	0.0029382054
137	0xbd43b2eb	-0.04777805
138	0x3d38bdfe	0.045103066
139	0x3e193a1e	0.14963576
140	0xbedf0a71	-0.43562654
141	0x3edf285b	0.43585476
142	0xbd37ee62	-0.044905074
143	0x3d87dd5e	0.06634019
144	0x3e2c49ba	0.16825
145	0x3eca32c0	0.39491844
146	0x3e49e272	0.19715288
147	0x3e1adbd4	0.1512292
148	0xbe928117	-0.28614113
149	0xbedcd8cc	-0.43134153
150	0x3d1b3402	0.037891395
151	0x3e037ece	0.12841341
152	0x3d46c21a	0.048524953
153	0x3ed179a6	0.40913123
154	0xbd9b9e18	-0.07598513
155	0x3e3f30c3	0.18670945
156	0xbe1eb591	-0.1549895
157	0xbf1b4940	-0.60658646
158	0xbe1e92b7	-0.15485655
159	0x3dffbbbb	0.124869786
160	0x3c6280b5	0.013824631
161	0x3ee0479c	0.43804634
162	0x3d0e5afd	0.034754742
163	0xbe5bc589	-0.21462072
164	0xbe2732fb	-0.16328041
165	0xbf6d2730	-0.9263792
166	0x3d461c10	0.048366606
167	0xbe1591e5	-0.14606436
168	0xbdaf9f3a	-0.08575292
169	0xbee2ab5c	-0.44271362
170	0x3de119c4	0.109912425
171	0xbcdea3e4	-0.027177759
172	0xbdd10003	-0.1020508
173	0xbe8fe0db	-0.2810124
174	0xbc894f30	-0.016761392
175	0x3d789f5b	0.06069885
176	0x3b5d09c9	0.0033727756
177	0xbee1bef1	-0.4409099
178	0x3c8e3e24	0.017363615
179	0x3d8a660a	0.06757744
180	0x3d58b38d	0.052905608
181	0xbecd08a9	-0.4004567
182	0xbd07ef6b	-0.03318731
183	0x3ddc2125	0.10748509
184	0xbe1c555c	-0.15266937
185	0xbea1c6b8	-0.31596923
186	0x3dcfc4eb	0.10144981
187	0x3e2be5dc	0.16786903
188	0x3e10d5a9	0.14144005
189	0xbf145320	-0.5793934
190	0xbc9b7077	-0.018974526
191	0x3dd8eb70	0.10591781
192	0x3d9a6cca	0.07540281
193	0xbe6642aa	-0.22486368
194	0xbc40804d	-0.011749339
195	0x3e26352f	0.16231225
196	0x3f4cb79e	0.7996768
197	0x3d281226	0.041032933
198	0xbc9870e5	-0.01860852
199	0x3c746fc1	0.014919222
200	0x3cdb7ec6	0.026793849
201	0xbe708a77	-0.2349032
202	0xbca3076d	-0.019901002
203	0xbdcc4f2e	-0.0997604
204	0x3f093541	0.53596884
205	0x3e23a6c5	0.15981586
206	0x3dd530de	0.10409711
207	0x3aa47e98	0.0012549935
208	0xbd742385	-0.059604187
209	0xbea7b73d	-0.32756987
210	0x3acc392c	0.0015581003
211	0xbe5a280c	-0.21304339
212	0x3e89fd31	0.26950982
213	0x3cad4e08	0.021155372
214	0xbca391dc	-0.019967012
215	0xbe8798be	-0.2648372
216	0xbd4ffb12	-0.05077655
217	0xbe67cce8	-0.2263676
218	0xbda84d55	-0.08217875
219	0x3d6004fb	0.05469225
220	0x3e1d8246	0.15381727
221	0x3e24b92c	0.16086262
222	0x3ba67912	0.0050803507
223	0x3daa7463	0.0832298
224	0x3d94b072	0.07260217
225	0xbd5928d3	-0.05301745
226	0xbe4274dd	-0.18989892
227	0xbd65868d	-0.05603652
228	0x3c90c01f	0.017669735
229	0x3ce67935	0.028133968
230	0xbd2d784c	-0.042351052
231	0xbc2f862f	-0.010713144
232	0x3c0c3ca2	0.008559378
233	0xbd2e7856	-0.04259523
234	0xbbaac168	-0.005211044
235	0x3e4663d9	0.19374026
236	0x3e607127	0.21918164
237	0xbea224b3	-0.31668624
238	0x3d0e1f9f	0.034698125
239	0x3e929919	0.2863243
240	0x3ea4ed69	0.3221238
241	0x3e9e4222	0.3090983
242	0xbb2242cc	-0.0024759052
243	0xbe8b7a90	-0.27241945
244	0xbdc83480	-0.097756386
245	0xbecc1776	-0.3986165
246	0x3dfc8372	0.12329759
247	0xbea8af4c	-0.3294624
248	0x3e76967e	0.24080846
249	0x3e2e380b	0.17013566
250	0xbdc4bf9f	-0.09606861
251	0x3ce864ed	0.028368438
252	0xbe39ccae	-0.18144485
253	0xbec5775a	-0.3856762
254	0xbd4fee9b	-0.05076466
255	0x3e199623	0.14998679

fc1.bias f4 [128]
0	0xbe08133b	-0.13288586
1	0x3e0155b2	0.12630346
2	0x3d794bae	0.06086319
3	0xbe64dea3	-0.22350554
4	0xbda023e9	-0.07819349
5	0x3e0d4a20	0.13797808
6	0x3d1e41eb	0.038637083
7	0xbdc74d1a	-0.09731503
8	0x3df4ce40	0.119534016
9	0xbe2f9175	-0.17145331
10	0xbdf8aee8	-0.12142736
11	0xbde54cdf	-0.111963026
12	0xbe807a81	-0.25093463
13	0xbdaace2a	-0.08340104
14	0x3e821ba6	0.2541172
15	0x3e742136	0.23840794
16	0x3d5d81fc	0.05407904
17	0xbe07847f	-0.13234137
18	0xbe2b5d6e	-0.1673486
19	0x3d597155	0.053086597
20	0xbc57023d	-0.013123092
21	0x3e8c0cbf	0.27353474
22	0x3dd6d11e	0.10489105
23	0xbe0f7557	-0.14009605
24	0xbec71cfb	-0.38889298
25	0x3d89e032	0.06732215
26	0xbef4aeea	-0.477897
27	0x3ea7b9bb	0.3275889
28	0x3c74cda3	0.014941606
29	0x3e203b6d	0.15647669
30	0xbe5da7f8	-0.21646106
31	0xbd4bba6c	-0.049738333
32	0x3e934517	0.2876365
33	0x3e6dea51	0.23233916
34	0xbdd3ceb9	-0.103421636
35	0x3e068f5b	0.13140623
36	0xbe14f67c	-0.14547151
37	0xbdf241cf	-0.11828958
38	0xbe6b93f0	-0.23005652
39	0x3d843e63	0.06457212
40	0x3d8a00d5	0.0673844
41	0x3d6b5d5a	0.057462074
42	0xbe2f4cc3	-0.17119126
43	0xbe97a6be	-0.29619402
44	0xbef077b1	-0.46966317
45	0x3e3fafde	0.18719432
46	0xbe763c66	-0.24046478
47	0xbe1426ee	-0.14467975
48	0xbdd7ccb4	-0.10537091
49	0xbc5ee76f	-0.013604983
50	0x3ec1d18d	0.37855187
51	0xbe9c1eb7	-0.30492184
52	0xbcfdc210	-0.030976325
53	0xbdcf1034	-0.101105124
54	0xbdaa85c8	-0.08326298
55	0x3e0618f0	0.1309545
56	0x3c7fa69b	0.015603687
57	0x3d059b2f	0.032618698
58	0xbe186724	-0.14883095
59	0x3d9f5dbc	0.0778155
60	0x3e8b7c27	0.27243158
61	0xbdd217e1	-0.10258461
62	0xbdc480ea	-0.09594901
63	0xbdda073f	-0.10645913
64	0x3d67efef	0.056625303
65	0xbe99c850	-0.3003564
66	0x3d8db0ea	0.06918509
67	0xbd9ac280	-0.07556629
68	0xbdd3d687	-0.10343652
69	0xbeaf3fae	-0.3422827
70	0xbdbaa560	-0.09113574
71	0xbe446c76	-0.19182
72	0x3dc559b1	0.09636248
73	0xbcbc4519	-0.022982167
74	0x3d76eecf	0.06028634
75	0xbeac2a6e	-0.3362612
76	0xbe29dbc9	-0.16587748
77	0xbea555ae	-0.3229193
78	0x3ab1cf50	0.0013565812
79	0xbd2f24a0	-0.042759538
80	0x3c8c00bb	0.017090192
81	0x3e0afe01	0.13573457
82	0xbe829652	-0.2550531
83	0x3db16a61	0.08662868
84	0x3dded28b	0.10880002
85	0x3da41689	0.08012111
86	0x3ed5e716	0.41777867
87	0xbde67f84	-0.112547904
88	0xbd84d731	-0.06486357
89	0x3cf14430	0.02945146
90	0xbe95a31e	-0.2922601
91	0x3d3ed091	0.046585623
92	0xbe9c66fb	-0.30547318
93	0x3ead884d	0.33893052
94	0xbea2717a	-0.317272
95	0xbdf449ad	-0.11928115
96	0x3e1a5b56	0.15073904
97	0xbec10b26	-0.37703818
98	0x3e0f89ac	0.14017361
99	0xbdafd7be	-0.085860714
100	0x3d7a9d73	0.06118531
101	0xbea2c770	-0.31792784
102	0x3d529292	0.05140931
103	0x3da4114b	0.08011111
104	0x3a83e001	0.0010061265
105	0xbe844b98	-0.25838923
106	0x3e2bfc09	0.16795363
107	0xbe30f4b6	-0.1728085
108	0xbe92d1be	-0.28675646
109	0xbe3f8b44	-0.1870547
110	0x3e81f3ef	0.2538142
111	0xbc59bff5	-0.013290395
112	0x3d3d06df	0.04614913
113	0xbd8b2a99	-0.06795234
114	0xbe058cff	-0.13042067
115	0xbe337536	-0.17525181
116	0xbd44354e	-0.047902398
117	0xbe522498	-0.20521772
118	0xbe83632d	-0.25661603
119	0x3db15535	0.0865883
120	0xbde47e31	-0.111568816
121	0x3e9621bc	0.29322612
122	0xbe848059	-0.25879171
123	0xbcc54982	-0.024082903
124	0x3d9e39a6	0.07725839
125	0xbe10325b	-0.14081709
126	0xbdaf0f2b	-0.08547815
127	0x3d890a6a	0.066914394

fc2.weight f4 [32, 128]
0	0xbdb35b7c	-0.08757684
1	0x3e3069cc	0.17227858
2	0xbd4cf610	-0.05003935
3	0x3e905839	0.2819231
4	0x3da4f55b	0.0805461
5	0xbe1e68c3	-0.15469651
6	0x3dbe90a7	0.09304934
7	0x3dd8ebc9	0.105918474
8	0xbe79a41b	-0.24379008
9	0xbdbc13a0	-0.09183431
10	0x3e3d7b90	0.18504167
11	0xbe084742	-0.13308433
12	0xbe62d99a	-0.22153321
13	0xbc5d51de	-0.013508288
14	0x3d8dfde2	0.0693319
15	0x3e5c0cf9	0.21489324
16	0x3e2533c6	0.16133031
17	0x3eac3641	0.33635142
18	0xbe0c5a91	-0.13706423
19	0xbcce5d8a	-0.025191087
20	0x3e38e530	0.18056178
21	0x3e6b6e03	0.22991185
22	0x3ba36d39	0.0049873856
23	0xbef7502e	-0.4830336
24	0xbe849487	-0.25894567
25	0xbc332e1d	-0.010936287
26	0xbe19a6e5	-0.15005071
27	0xbda15276	-0.07877056
28	0x3cb0bfa1	0.02157575
29	0x3e2d6bed	0.16935702
30	0x3e23bef0	0.15990806
31	0xbecca04f	-0.39966056
32	0x3c2b99cf	0.010473683
33	0x3eb970c1	0.36218837
34	0x3dd0927e	0.10184191
35	0x3e3226ed	0.17397662
36	0xbd34e873	-0.044166993
37	0xbd058b1f	-0.03260338
38	0xbd79eb3e	-0.06101536
39	0x3e44b327	0.19208966
40	0xbee0fc6b	-0.4394258
41	0x3ce096c8	0.027415648
42	0x3dd1ffba	0.10253854
43	0x3e257e95	0.16161568
44	0x3dcae902	0.09907724
45	0xbd32d2ff	-0.043658253
46	0x3e32a573	0.17445926
47	0x3d3fb6fb	0.046805363
48	0x3d974566	0.073862836
49	0x3e6dcf20	0.23223543
50	0xbd680bc3	-0.05665184
51	0xbbdd00db	-0.0067444867
52	0xbc4e62aa	-0.0125967655
53	0x3e7be08f	0.24597381
54	0x3cc8f935	0.024532894
55	0xbe37269b	-0.1788582
56	0xbd08177c	-0.03322552
57	0xbdd3dd0d	-0.103448965
58	0x3e3124e8	0.17299235
59	0x3e58c5fb	0.21169274
60	0x3ef336bb	0.47502694
61	0xbeced41d	-0.40396205
62	0x3e10e3af	0.14149354
63	0xbd0efafc	-0.034907326
64	0x3db1de66	0.08684997
65	0x3e2c2614	0.168114
66	0xbda17494	-0.07883564
67	0x3de4c692	0.11170687
68	0xbe959ff7	-0.29223606
69	0x3d846894	0.06465259
70	0x3ea32a91	0.31868413
71	0xbd5ac01d	-0.05340587
72	0xbd7ccab7	-0.06171676
73	0xbe037dd4	-0.12840968
74	0xbe9ffae5	-0.31246105
75	0x3e728690	0.23684144
76	0xbe0ea6fa	-0.13930884
77	0xbd88f791	-0.066878445
78	0xbd161ce4	-0.036648646
79	0xbe0444b2	-0.1291683
80	0x3e515d6b	0.20445792
81	0x3df08489	0.11744029
82	0x3e67bc5f	0.22630452
83	0x3c09afa9	0.008403697
84	0xbe9c9e20	-0.3058939
85	0x3d73f074	0.059555486
86	0xbdf572ae	-0.11984764
87	0x3dcf480a	0.10121162
88	0xbd8fbb8a	-0.07018192
89	0x3ba9dfad	0.005184135
90	0xbd2d4458	-0.042301506
91	0xbf19a97b	-0.6002423
92	0x3da94ea2	0.08266951
93	0x3e450785	0.1924115
94	0x3e799c6d	0.24376078
95	0x3ea9bb75	0.3315083
96	0xbdfde506	-0.123971984
97	0xbe7b2d7d	-0.24529071
98	0x3e5e141d	0.2168736
99	0xbd96394a	-0.07335146
100	0x3d9a2df4	0.07528296
101	0x3c2bcc65	0.010485743
102	0x3e583fc7	0.21118079
103	0x3f715f75	0.9428628
104	0x3d80b5ed	0.062846996
105	0xbe455baa	-0.19273248
106	0x3e8d90be	0.27649492
107	0x3dbeff62	0.09326054
108	0xbd15cca8	-0.03657213
109	0x3d7106d1	0.05884439
110	0x3e67faa1	0.22654201
111	0xbca0e677	-0.019641144
112	0x3e0351fa	0.1282424
113	0xbe158f16	-0.14605364
114	0xbb4bebad	-0.0031115816
115	0x3d9cd2c8	0.07657391
116	0xbdf65fb9	-0.120299764
117	0xbf1ea25a	-0.6196648
118	0xbe4c96b2	-0.1997936
119	0xbdf87378	-0.12131399
120	0x3b3c3b2d	0.0028721795
121	0xbe86274c	-0.26201856
122	0xbe89f354	-0.26943457
123	0x3f76bd44	0.96382546
124	0xbe37abba	-0.17936602
125	0x3e430025	0.19043024
126	0x3e3efadf	0.18650387
127	0xbe0ddd54	-0.13853961
128	0xbe5e9140	-0.21735096
129	0x3dc958f2	0.09831418
130	0x3bb2599f	0.0054428126
131	0xbed9f0f1	-0.42566636
132	0xbd1ce45a	-0.03830371
133	0xbe8ce2a9	-0.27516678
134	0xbe5768ea	-0.21036115
135	0xbde689ca	-0.1125675
136	0x3e7434a6	0.23848209
137	0xbd0e7a99	-0.034784887
138	0xbcee58b3	-0.02909503
139	0xbe413b68	-0.18870318
140	0x3d8130fa	0.0630817
141	0x3d55b6b6	0.0521762
142	0x3d524ff4	0.05134578
143	0x3e9a8f75	0.30187574
144	0xbedf5470	-0.43619108
145	0xbd636f24	-0.055525914
146	0x3d35e204	0.044405
147	0xbecda10a	-0.40161926
148	0xbc9221c4	-0.017838366
149	0xbe904000	-0.28173828
150	0xbc28ecc6	-0.010310357
151	0x3d091b6d	0.03347342
152	0x3ea5ef63	0.324092
153	0xbe929a38	-0.28633285
154	0xbe0b14ab	-0.13582103
155	0xbd87ba17	-0.06627291
156	0xbd8d6bcc	-0.06905326
157	0xbea08fc3	-0.3135968
158	0xbe5083cc	-0.20362777
159	0xbcda1700	-0.026622295
160	0xbe4d8de3	-0.20073657
161	0xbed16798	-0.40899348
162	0xbe5c19f3	-0.21494274
163	0x3c26e5c4	0.010186616
164	0x3f07ceab	0.53049725
165	0xbdf28510	-0.11841786
166	0x3e635614	0.22200805
167	0x3d5089b4	0.050912574
168	0xbee5650f	-0.44803664
169	0xbe3c6590	-0.18398118
170	0xbe88f273	-0.26747474
171	0xbd186760	-0.03720796
172	0xbe8586e2	-0.2607947
173	0x3cb74ec1	0.02237642
174	0xbe2075c4	-0.15669924
175	0x3dd5fecf	0.104489915
176	0xbe8eb0e7	-0.2786934
177	0xbcc463b4	-0.023973323
178	0x3e810389	0.2519801
179	0x3de3a98c	0.11116323
180	0x3e467633	0.19381027
181	0x3dbb152d	0.09134898
182	0xbdec836c	-0.11548504
183	0xbe00b024	-0.12567192
184	0xbeb17719	-0.34661177
185	0x3e150d68	0.14555895
186	0xbf1f896d	-0.6231907
187	0x3e722a98	0.2364906
188	0xbe8bce41	-0.27305797
189	0x3ea87a75	0.32905927
190	0x3e4f1680	0.20223427
191	0x3e4550da	0.19269124
192	0xbefe507c	-0.4967078
193	0xbddbfaad	-0.10741172
194	0xbe183769	-0.14864887
195	0xbec97472	-0.39346653
196	0xbd2ec0d1	-0.042664353
197	0xbb088c56	-0.00208356
198	0xbedd03df	-0.43167016
199	0xbeb3ae0c	-0.35093725
200	0xbcad30c0	-0.02114141
201	0x3e81296b	0.25226912
202	0x3bce783b	0.0063009537
203	0x3d0fcf26	0.03510966
204	0x3e93ceed	0.2886881
205	0xbd973c65	-0.07384566
206	0x3c3a9515	0.011388083
207	0xbdebd8a7	-0.115159325
208	0xbebd67be	-0.36993212
209	0xbc2bc8a8	-0.010484852
210	0x3e486c61	0.19572593
211	0xbdb8db76	-0.09026234
212	0xbc82e7c1	-0.01597965
213	0xbed3529d	-0.41273966
214	0xbe7476a9	-0.2387339
215	0xbe2816af	-0.16414903
216	0x3e00b53d	0.12569137
217	0xbdab5363	-0.08365514
218	0xbd2e26f7	-0.04251763
219	0x3e890fd0	0.26769876
220	0x3d347e03	0.044065487
221	0xbe31a00e	-0.17346212
222	0x3e3e5dbf	0.18590449
223	0xbeddaaef	-0.43294474
224	0xbd8dae81	-0.069180496
225	0x3f00596a	0.50136435
226	0xbcd99892	-0.026562009
227	0xbf3fe533	-0.74959105
228	0x3e947075	0.28992048
229	0x3e3476fe	0.17623517
230	0x3d8467df	0.06465124
231	0x3d4e1e55	0.050321896
232	0x3e123096	0.14276347
233	0x3e2254e5	0.15852697
234	0xbd62a0be	-0.055329077
235	0x3e21a4a7	0.15785466
236	0xbd75286e	-0.05985301
237	0x3e86ba03	0.2631379
238	0xbd5564ca	-0.052098073
239	0xbb856f4f	-0.004072107
240	0x3a6252b9	0.00086335425
241	0xbd9361e6	-0.07196407
242	0xbdfe9955	-0.124315895
243	0x3d38a7b2	0.0450818
244	0x3e854699	0.26030424
245	0x3e7d9f12	0.24767712
246	0x3ded9a2a	0.1160167
247	0x3e01c3f8	0.12672412
248	0x3c284345	0.010269945
249	0xbf4556a0	-0.77085304
250	0x3cbfd716	0.02341799
251	0xbeb7fe22	-0.35936075
252	0x3e1fc623	0.15602927
253	0xbe931a6d	-0.287311
254	0xbd8f1953	-0.06987252
255	0xbf0e2754	-0.5552876

fc2.bias f4 [32]
0	0x3d8748cc	0.06605682
1	0xbcdfdea5	-0.027327845
2	0xbd6f4d98	-0.05842361
3	0xbc2810aa	-0.010257879
4	0x3de10e3d	0.10989044
5	0xbc4cf892	-0.012510436
6	0x3e2cfb0f	0.16892646
7	0xbdb1e307	-0.0868588
8	0xbdc2cfd5	-0.09512297
9	0xbbd3e2b2	-0.006466233
10	0xbc1ed538	-0.00969439
11	0x3d84982f	0.06474339
12	0x3bccd38f	0.0062508057
13	0xbe53f890	-0.20700288
14	0x3c1c10f6	0.009525528
15	0x3e0b333c	0.13593763
16	0x3d39157a	0.045186497
17	0x3e037e12	0.12841061
18	0xbbebe7d0	-0.007199265
19	0xbdfdc801	-0.12391663
20	0x3d8ac086	0.06775002
21	0xbd833771	-0.06407059
22	0x3d112e23	0.03544439
23	0x3e5727d9	0.21011294
24	0x3de3dff2	0.111266986
25	0xbe009570	-0.12557006
26	0xbc93c63f	-0.018038867
27	0xbd5fecd3	-0.054669213
28	0x3e035a39	0.12827386
29	0xbd08cf4c	-0.03340082
30	0xbe6e0c62	-0.23246911
31	0x3e372faf	0.17889284

fc3.weight f4 [2, 32]
0	0xbea57f07	-0.32323477
1	0x3e8bbabf	0.27290913
2	0xbd95dd27	-0.07317572
3	0xbdadbcd1	-0.084832795
4	0xbdccbbac	-0.09996733
5	0x3c6628f0	0.014047846
6	0x3f04e2fc	0.5190885
7	0x3e1c6bda	0.15275517
8	0xbceb687b	-0.028736344
9	0xbefe4a41	-0.49666026
10	0xbe76c543	-0.24098687
11	0x3dcbfb02	0.09959985
12	0xbe07f68f	-0.13277648
13	0x3e3470a8	0.176211
14	0xbcc361e7	-0.023850394
15	0x3d898951	0.06715644
16	0x3ea83f91	0.32860997
17	0x3daa6d0c	0.0832158
18	0xbf179938	-0.5921817
19	0x3d4f2d37	0.05058023
20	0x3eaab5c2	0.33341795
21	0xbe4adc3b	-0.19810574
22	0x3e50b118	0.20380056
23	0x3d853466	0.06504135
24	0xbdad7cc6	-0.08471064
25	0xbed30ec0	-0.4122219
26	0xbd42e51c	-0.047581777
27	0xbe3fed4d	-0.18742867
28	0x3dd9e343	0.1063905
29	0x3ece2b60	0.40267467
30	0xbdd69c22	-0.10478999
31	0x3e4b0f42	0.19830039
32	0xbd813f81	-0.063109405
33	0xbe0ffdb5	-0.14061625
34	0xbe14ca93	-0.14530401
35	0x3e952c5a	0.291354
36	0x3da5a7f5	0.08088676
37	0x3f13c8c9	0.5772825
38	0x3e690c91	0.227587
39	0x3b9c0116	0.0047608716
40	0x3eee0c02	0.46493536
41	0x3e4be7b5	0.19912608
42	0x3e11823c	0.14209837
43	0xbd3c898e	-0.04602962
44	0xbeb66469	-0.35623482
45	0xbee47192	-0.44617897
46	0xbf3bd0ef	-0.7336568
47	0x3df087a9	0.11744625
48	0x3e08c873	0.13357715
49	0x3f0149b4	0.5050309
50	0x3d94e3dd	0.07270024
51	0xbed095ed	-0.40739384
52	0xbeb28e4f	-0.34874198
53	0x3e8c63c9	0.2741988
54	0xbd0ab235	-0.033861358
55	0xbe59c4f1	-0.21266533
56	0xbeba71b8	-0.36414886
57	0x3db9118d	0.09036551
58	0xbe8fdbad	-0.28097287
59	0x3efd1f49	0.4943793
60	0xbe5a19e3	-0.21298937
61	0x3dfc74d3	0.1232697
62	0x3f13b5d0	0.576993
63	0xbeb4daca	-0.35323173

fc3.bias f4 [2]
0	0xbd8200a1	-0.06347776
1	0xbe8be24b	-0.27321085
