checkpoint_critic1.pth (torch_old, 30699 bytes, 5 tensors)

fcs1.weight f4 [128, 24]
0	0xbb3efac7	-0.0029141174
1	0xbdfbd3af	-0.12296235
2	0x3cc446a8	0.023959473
3	0xbb336d51	-0.002737839
4	0x3ddd27a4	0.107985765
5	0x3cf12708	0.029437557
6	0xbd087660	-0.033316016
7	0xbda31f06	-0.079649016
8	0x3ba5be60	0.005058095
9	0xbe50aac5	-0.20377643
10	0xbd7c71a5	-0.061631817
11	0xbd84cc03	-0.06484225
12	0x3dc77685	0.09739403
13	0x3e718d30	0.23589015
14	0x3d3e6529	0.046483193
15	0x3d052297	0.03250369
16	0x3dc4df36	0.096128866
17	0xbdf4e542	-0.1195779
18	0x3c0ee39b	0.008721258
19	0x3d7a7cb8	0.061154097
20	0xbe035477	-0.1282519
21	0x3e46a597	0.19399105
22	0xbc3a4ad4	-0.0113703795
23	0x3d225515	0.03963192
24	0x3e9c5ab4	0.3053795
25	0x3ec5df96	0.38647145
26	0x3d173b88	0.036922008
27	0x3d3cc59c	0.046086892
28	0xbd7a3988	-0.061090022
29	0xbe998900	-0.29987335
30	0xbcf2aceb	-0.02962347
31	0x3ca28881	0.01984048
32	0x3e282a18	0.16422307
33	0x3d2b15b4	0.041768745
34	0x3c9b1b1d	0.018933827
35	0x3d5a4167	0.05328503
36	0xbe5d66e2	-0.21621278
37	0x3c03bac7	0.008040137
38	0x3cacbbf2	0.021085713
39	0x3cc9efcb	0.024650475
40	0x3e08bad6	0.13352522
41	0xbde625d5	-0.11237685
42	0x3d0482bd	0.032351244
43	0xbcf96785	-0.03044487
44	0xbeb81e31	-0.35960534
45	0xbdb4316a	-0.087984875
46	0x3c70501e	0.014667539
47	0x3cc0b06b	0.023521623
48	0x3dab3965	0.083605565
49	0xbea032a8	-0.31288648
50	0x3ca32c1e	0.019918498
51	0x3d9fdd18	0.07805842
52	0x3de44ce8	0.11147481
53	0x3e610927	0.21976148
54	0xbd522b68	-0.051310927
55	0xbbbca5de	-0.0057570776
56	0x3deefd9c	0.11669466
57	0xbe1dcb37	-0.15409552
58	0xbd432404	-0.04764177
59	0x3dc76881	0.097367294
60	0xbe02c939	-0.12772073
61	0xbe0daf88	-0.13836491
62	0x3c8fc034	0.017547704
63	0x3db7a35e	0.08966707
64	0x3d85cba6	0.065329835
65	0xbe25afdb	-0.16180365
66	0x3a4665d1	0.00075682724
67	0x3e05c93c	0.13065046
68	0xbe3115bc	-0.17293447
69	0xbea1e771	-0.31621888
70	0x3ce2f51e	0.027704772
71	0xbc9ae870	-0.018909663
72	0x399246db	0.00027900081
73	0x3e6ccbef	0.2312467
74	0xbc9090e4	-0.017647214
75	0x3ba143b7	0.0049214023
76	0xbdd15980	-0.10222149
77	0xbe1be2a5	-0.15223177
78	0x3c995dcb	0.018721482
79	0x3ca8c416	0.020601314
80	0x3c9a8fb6	0.018867355
81	0x3ec00289	0.37501934
82	0xbd051b8a	-0.032496966
83	0x3c83987f	0.016063927
84	0xbd8c06b1	-0.06837214
85	0x3da77648	0.08176857
86	0x3d1c3de1	0.03814495
87	0xbd034952	-0.032052346
88	0xbc8b93eb	-0.017038306
89	0x3ed92d63	0.4241744
90	0x3b996a6b	0.0046818755
91	0xbd3bd511	-0.045857493
92	0x3ed28a37	0.41121075
93	0x3e8319ff	0.2560577
94	0x3b1797e1	0.0023131298
95	0x3d83a0aa	0.064271286
96	0x3bd413b2	0.0064720744
97	0xbdcc3213	-0.099704884
98	0xbcb59cf0	-0.02216956
99	0xbb7f1d50	-0.0038927384
100	0x3dfbd24e	0.12295972
101	0x3c2d95f7	0.010594836
102	0x3cc5ba67	0.024136735
103	0x3c7cf18c	0.015438449
104	0xbced9d3b	-0.029005637
105	0x3d9cc06e	0.076538906
106	0xbd8988fc	-0.06715581
107	0x3cfd2e2a	0.030905802
108	0x3cda9276	0.026681166
109	0x3e240757	0.16018425
110	0x3d88e9e4	0.06685236
111	0xbd721505	-0.059102077
112	0x3cbeeaa0	0.023305237
113	0x3dc4c944	0.09608701
114	0x3cbb89bb	0.022892823
115	0x3db33236	0.08749811
116	0x3ebe86b3	0.37212142
117	0xbe033573	-0.12813358
118	0xbce4109c	-0.027839951
119	0xbd92f94c	-0.07176456
120	0x3e08f264	0.13373715
121	0x3f07e23c	0.5307958
122	0x3d9dfdb7	0.07714408
123	0xbc80b903	-0.01571322
124	0x3e0b413f	0.13599108
125	0xbd03fc6f	-0.03222316
126	0xbd7dc2bd	-0.061953295
127	0xbdc1b59d	-0.09458468
128	0x3daa2049	0.08306939
129	0x3e6f300f	0.23358177
130	0x3d959b70	0.07305038
131	0xbe2daa40	-0.16959476
132	0xbe13abda	-0.14421025
133	0x3e61a855	0.2203687
134	0xbd705f05	-0.058684368
135	0xbe1fba2e	-0.15598366
136	0x3d95e68b	0.07319363
137	0x3e870e42	0.26378065
138	0x3c833125	0.016014645
139	0x3d1bd85e	0.03804814
140	0xbda48070	-0.0803231
141	0x3e0defa0	0.13860941
142	0xbd20cea6	-0.039259575
143	0xbdb58160	-0.08862567
144	0xbc239f24	-0.009986673
145	0xbe4de0b4	-0.20105249
146	0xbccacc99	-0.024755763
147	0x3c8dde33	0.017317867
148	0xbeb576cb	-0.35442194
149	0x3e391243	0.18073373
150	0x3cc79adf	0.02436584
151	0xbd082010	-0.033233702
152	0x3d53dba6	0.051723145
153	0xbe540668	-0.20705569
154	0x3d3df90c	0.046380088
155	0x3cb3b61a	0.021937419
156	0xbdc7474d	-0.097303964
157	0x3e0af527	0.1357008
158	0xbd1e9976	-0.03872057
159	0xbdc9b377	-0.09848683
160	0x3da43e43	0.08019688
161	0xbe2535bf	-0.16133784
162	0x3bf12c1b	0.007359994
163	0x3c3c3c67	0.01148901
164	0x3ec3ed43	0.38266954
165	0x3c1a06da	0.009401048
166	0xbbcea17a	-0.0063058706
167	0x3b97b2b9	0.0046294597
168	0xbb39e96a	-0.0028367885
169	0x3d187f07	0.037230518
170	0xbb9abed2	-0.0047224546
171	0xbd27e318	-0.040988058
172	0xbe825d54	-0.2546183
173	0xbc394bfe	-0.011309622
174	0xbb1b5301	-0.0023700597
175	0x3daa00bb	0.083009206
176	0x3dce2ca4	0.10067108
177	0x3d206b11	0.039164606
178	0xbcff07a3	-0.031131571
179	0x3d428b88	0.04749635
180	0xbcb70e7d	-0.022345776
181	0x3da46a67	0.08028107
182	0xbc2f4af6	-0.010699024
183	0x3cd4c1ae	0.02597126
184	0x3cfc9155	0.030831018
185	0x3e011a52	0.12607697
186	0xbd986582	-0.07441236
187	0xbe2409f6	-0.16019425
188	0x3e655c3d	0.22398467
189	0x3df74d6e	0.120753154
190	0x3d65b00c	0.056076095
191	0xbd955f5e	-0.072935805
192	0x3e9d74f1	0.30753282
193	0x3c872ab5	0.016499856
194	0x3cc2d959	0.02378528
195	0xbb234bd9	-0.0024917035
196	0x3c9a4e6d	0.018836224
197	0xbb50305d	-0.0031767108
198	0x3bbf928b	0.0058463267
199	0x3e148969	0.14505543
200	0x3de87800	0.11351013
201	0x3cb8cb24	0.022557802
202	0xbd055086	-0.032547496
203	0x3b85ef2d	0.00408735
204	0xbc994c52	-0.01871315
205	0xbcc9816f	-0.024597852
206	0x3c71362a	0.014722386
207	0x3d343626	0.043996952
208	0x3db8dbf8	0.09026331
209	0x3e79fda4	0.24413162
210	0x3ce8b69d	0.02840739
211	0x3e1cd348	0.15314972
212	0xbc941d06	-0.018080246
213	0xbef3ce31	-0.4761825
214	0xbd3b76cf	-0.0457676
215	0x3e8ecee7	0.2789223
216	0xbc02e4d7	-0.00798913
217	0x3e0af7dc	0.13571113
218	0xbc094572	-0.008378373
219	0xbcdd2020	-0.026992857
220	0xbeb481fa	-0.35255414
221	0xbe6a08a8	-0.22854865
222	0x3c8e5fde	0.017379697
223	0x3c9602c6	0.01831187
224	0x3de9cc02	0.114158645
225	0xbcd17556	-0.025568645
226	0xbc060abe	-0.008181272
227	0x3c5dad11	0.013530032
228	0xbd873d95	-0.06603543
229	0x3d5c6b1d	0.05381309
230	0xb94bbc0c	-0.00019429642
231	0xbcb3f746	-0.021968495
232	0x3c952373	0.01820538
233	0xbe2d0e2a	-0.16899934
234	0x3d033eca	0.032042302
235	0xbd92c581	-0.07166577
236	0x3e97a9f2	0.29621845
237	0x3ed0069b	0.4063004
238	0xba8957bc	-0.0010478417
239	0xbc848c97	-0.01618032
240	0xbd9cbc5c	-0.07653114
241	0xbd00dfef	-0.03146356
242	0xbcba6c9c	-0.022756867
243	0xbc82821e	-0.015931185
244	0x3d8aab65	0.06770972
245	0x3e4fd7a9	0.20297112
246	0x3c86aaff	0.01643896
247	0x3c9ca85e	0.019123252
248	0xbd0eae6b	-0.034834307
249	0x3e2ea85e	0.17056414
250	0x3c68b49c	0.014203217
251	0xbc30919f	-0.010776906
252	0xbc90988b	-0.017650863
253	0xbd265278	-0.040605992
254	0xbc670616	-0.014100572
255	0xbb548b96	-0.0032431833

fcs1.bias f4 [128]
0	0xbed70036	-0.41992348
1	0x3da52c80	0.08065128
2	0x3c2b4601	0.010453702
3	0xbea05c7e	-0.31320566
4	0xbcba6947	-0.022755278
5	0x3dd0bead	0.101926185
6	0xbd30ac91	-0.043133322
7	0xbdc9dfd4	-0.09857145
8	0xbc0323d9	-0.008004152
9	0xba54a20d	-0.00081113057
10	0xbde93932	-0.11387862
11	0xbe9d1b61	-0.3068495
12	0xbda2821b	-0.07934972
13	0xbcd950d9	-0.026527809
14	0x3e67d78c	0.22640818
15	0xbd1b58e1	-0.03792656
16	0xbe4b141e	-0.19831893
17	0xbe4280f8	-0.1899451
18	0xbcd6aae0	-0.026204526
19	0xbdbf5f35	-0.09344331
20	0xbdd33d10	-0.10314381
21	0xbc353330	-0.011059567
22	0x3e6c64a9	0.23085274
23	0x3e8a2b43	0.2698613
24	0xbd596b87	-0.05308106
25	0x3e37ebb0	0.17961001
26	0xbe0f54e5	-0.13997228
27	0xbdb99d16	-0.09063165
28	0x3db1bf50	0.08679068
29	0x3d07a007	0.0331116
30	0xbe60c99d	-0.2195191
31	0xbd41bdee	-0.04730027
32	0x3c0b6872	0.008508788
33	0xbd5bdbb7	-0.053676333
34	0xbe3d332e	-0.18476555
35	0x3e0dde12	0.13854244
36	0xbe187663	-0.14888911
37	0xbe49380f	-0.19650291
38	0xbe4399ba	-0.19101611
39	0xbcfce933	-0.030872917
40	0xbe820be4	-0.25399697
41	0xbb96c909	-0.004601602
42	0xbe6c108e	-0.2305319
43	0xbd9fc117	-0.07800501
44	0xbe30a600	-0.17250824
45	0x3d31be7b	0.043394547
46	0x3d8c981d	0.06864951
47	0xbeb19214	-0.3468176
48	0xbe4ade43	-0.19811349
49	0xbc8ba74f	-0.017047552
50	0x3d8d60ce	0.0690323
51	0xbe92901d	-0.28625575
52	0x3ea2f739	0.3182924
53	0xbdddc6d0	-0.10828936
54	0xbc861b39	-0.016370403
55	0xbe21c6b7	-0.1579846
56	0xbe0da773	-0.13833408
57	0xbdc72e37	-0.09725612
58	0xbd219dcc	-0.039457127
59	0x3d6a6a4b	0.057230275
60	0x3d1ee519	0.038792703
61	0xbdd2a653	-0.1028563
62	0xbda9e73e	-0.08296059
63	0xbf0025e6	-0.5005783
64	0x3e02d49e	0.1277642
65	0xbf16cd4b	-0.58907
66	0xbdd00329	-0.10156853
67	0xbcb4dca2	-0.022077862
68	0xbe04959f	-0.12947701
69	0xbee0103a	-0.4376238
70	0xbe163fe5	-0.14672811
71	0xbdc02b9f	-0.0938332
72	0xbc227e33	-0.009917784
73	0xbd2cc715	-0.042182047
74	0x3dc05ab4	0.093923
75	0xbf1870db	-0.59547204
76	0xbe8a9bc0	-0.27071953
77	0xbdb7c1ac	-0.08972487
78	0x3da6ebe8	0.08150464
79	0x3deb634a	0.11493547
80	0xbe746b2f	-0.23869012
81	0xba730499	-0.00092703995
82	0x3ccc243b	0.02491962
83	0x3e8fb8c5	0.28070655
84	0xbde5c0c1	-0.112184055
85	0x3e015acb	0.12632291
86	0xbdc9d374	-0.098547846
87	0xbe0c2c10	-0.13688684
88	0xbebc82a4	-0.3681842
89	0x3d970a65	0.073750295
90	0xbe6ef11e	-0.23334166
91	0xbd86ea4e	-0.06587659
92	0xbe8d4a86	-0.2759592
93	0x3e86aa5b	0.26301846
94	0xbe534d36	-0.20634922
95	0x3d06d424	0.032917157
96	0x3d9d93cd	0.076942064
97	0xbd9ca915	-0.07649437
98	0xbe07dfa2	-0.13268903
99	0xbd65a4b1	-0.056065265
100	0x3da49d35	0.08037797
101	0xbe8c7e47	-0.27440092
102	0xbdbb6668	-0.09150392
103	0xbe3cf321	-0.18452121
104	0x3e56898c	0.20950907
105	0xbe5fad19	-0.21843375
106	0x3dc3155a	0.09525557
107	0xbe8c467b	-0.27397522
108	0xbda2a6fe	-0.079420075
109	0xbdf517f5	-0.1196746
110	0x3dd403ef	0.10352313
111	0xbb1dab39	-0.0024058355
112	0x3e19e75d	0.15029664
113	0xbe396b1c	-0.18107265
114	0xbd904bde	-0.070457205
115	0xbe6eb479	-0.23311032
116	0xbe34d721	-0.1766019
117	0xbeb50890	-0.35358095
118	0xbe841646	-0.25798243
119	0xbdf89723	-0.12138202
120	0xbe43a44c	-0.19105643
121	0x3e8b53cf	0.27212378
122	0xbddcba08	-0.1077767
123	0xbe24666c	-0.16054696
124	0x3ebd3a7f	0.3695869
125	0xbe3be26c	-0.18348092
126	0x3ddacdf1	0.106838115
127	0xbe38af64	-0.18035656

fc2.weight f4 [32, 130]
0	0xbd8f133c	-0.069860905
1	0x3c5ea09e	0.013588099
2	0x3dd4573c	0.10368201
3	0x3c0762c6	0.0082632955
4	0xbdf9fbbb	-0.12206217
5	0xbe31b0cc	-0.17352599
6	0xbc10eea6	-0.008845961
7	0x3d95d1ed	0.07315431
8	0xbd9a137a	-0.07523246
9	0x3c858479	0.01629852
10	0x3d0ef075	0.034897286
11	0x3ec33b4a	0.3813117
12	0x3db8d969	0.09025843
13	0xbe552cae	-0.20817825
14	0x3caa43e5	0.020784328
15	0x3c796bd5	0.015223463
16	0x3ae538f0	0.0017488282
17	0xbe9eb7b5	-0.30999532
18	0x3d85061a	0.064953044
19	0x3c1cd294	0.00957169
20	0xbe30d74d	-0.1726963
21	0x3db77d85	0.08959488
22	0xbda7c61a	-0.08192082
23	0xbe204a64	-0.15653378
24	0xbb3c1ee2	-0.002870493
25	0x3bcfcf58	0.006341856
26	0xbdde90b6	-0.10867445
27	0x3cf10dd0	0.029425532
28	0x3e10ccd4	0.14140636
29	0x3e42f503	0.19038777
30	0xbcc94e74	-0.024573542
31	0xbcad7890	-0.021175653
32	0x3d8718c2	0.06596519
33	0xbd9b6e9a	-0.07589455
34	0xbd3116c6	-0.04323461
35	0x3e51ffca	0.20507732
36	0x3d29809c	0.041382417
37	0xbce78f4f	-0.028266577
38	0x3e09ead6	0.13468489
39	0x3dc4eb18	0.09615153
40	0xbc965ddb	-0.0183553
41	0xbd417352	-0.04722912
42	0x3d25bb5a	0.040461875
43	0xba5113d7	-0.00079756737
44	0x3cf9f26a	0.0305111
45	0xbe204326	-0.15650615
46	0xbd628e8f	-0.055311736
47	0xbe005e56	-0.12535986
48	0xbe2110eb	-0.1572911
49	0x3daeb7ad	0.08531127
50	0xbe7b76b6	-0.24557003
51	0x3dc59359	0.09647245
52	0xbe1320e8	-0.14368021
53	0xbee81e93	-0.45335826
54	0x3c35bf16	0.011092922
55	0x3c80ac7c	0.015707247
56	0xbd9e7c4d	-0.07738552
57	0x3c0efb52	0.008726912
58	0x3e362f86	0.17791566
59	0x3d06854b	0.03284196
60	0x3d3fdf19	0.046843622
61	0x3e1665d7	0.14687286
62	0x3ea8cf72	0.32970768
63	0x3da8f8d2	0.08250584
64	0x3d4cc155	0.049989063
65	0x3da1a5cc	0.07892951
66	0xbd8b4034	-0.06799355
67	0x3d9a1b06	0.075246856
68	0x3d391450	0.045185387
69	0xbe11e89a	-0.14248887
70	0xbe01ed0c	-0.12688082
71	0xbea2a0dd	-0.31763354
72	0xbd33efef	-0.04392999
73	0x3d18d071	0.03730816
74	0xbe5e2ec4	-0.21697527
75	0xbdb99a3c	-0.09062621
76	0xbe5ad378	-0.21369731
77	0xbd685a23	-0.056726586
78	0x3d8d6424	0.06903866
79	0x3a55ee4d	0.0008160815
80	0xbe0a7c90	-0.1352408
81	0x3d630db1	0.05543298
82	0xbe3ac964	-0.18240887
83	0xbe2855a6	-0.16438922
84	0x3dc37f83	0.09545805
85	0xbd90c533	-0.07068863
86	0xbd1737ba	-0.03691838
87	0xbd76f178	-0.060288876
88	0xbdfbc068	-0.12292558
89	0xbd19067e	-0.037359707
90	0x3c0e57bd	0.008687911
91	0x3cb9e5e3	0.022692626
92	0x3d86cef4	0.06582442
93	0x3c618dd9	0.013766729
94	0x3d80dfa9	0.0629266
95	0xbc7e7d69	-0.01553283
96	0xbdc17859	-0.094467826
97	0xbeac6ced	-0.33676854
98	0x3e3dd5d7	0.18538605
99	0xb9c2e8a4	-0.00037175894
100	0x3d25363b	0.04033492
101	0x3e102af8	0.14078891
102	0x3d02aff4	0.031906083
103	0x3cad2ae7	0.021138621
104	0x3dd41707	0.103559546
105	0xbe94f2d4	-0.29091513
106	0x3d621384	0.055194393
107	0xbfeedc6c	-1.8661017
108	0xbd90df3f	-0.07073831
109	0xbcda0c40	-0.02661717
110	0x3dada846	0.08479361
111	0x3decd4b8	0.115640104
112	0x3c9e75b9	0.019343244
113	0xbd0c112a	-0.034196056
114	0xbcb7c660	-0.02243346
115	0xbe556a59	-0.2084135
116	0xbc2b051a	-0.010438228
117	0xbd67a512	-0.056553908
118	0xbd768ba9	-0.060191784
119	0xbe74cb14	-0.23905593
120	0x3e59b77e	0.21261403
121	0x3e8d5172	0.276012
122	0x3d2b291e	0.04178726
123	0x3c14eb63	0.009089324
124	0x3c360045	0.011108463
125	0x3d6038db	0.05474172
126	0xbe313524	-0.17305428
127	0x3d940522	0.072275415
128	0xbdf8bba0	-0.12145162
129	0xb9c21d37	-0.0003702433
130	0xbc9ec733	-0.019382095
131	0xbd542c1f	-0.05179989
132	0x3d9264c0	0.07148123
133	0x3e68a867	0.2272049
134	0xbe699844	-0.22811991
135	0xbdc21e3e	-0.094784245
136	0x3e538736	0.20657048
137	0xbcd006e2	-0.025393907
138	0xbc06c976	-0.008226743
139	0x3e141ec9	0.14464869
140	0x3e1ab2d5	0.15107282
141	0xbd493644	-0.049124017
142	0xbeaea54c	-0.34110487
143	0xbbebce85	-0.00719625
144	0x3dd8f5eb	0.1059378
145	0xbdfd47e3	-0.12367227
146	0x3e41458b	0.18874185
147	0xbe3a786a	-0.18209997
148	0xbd839023	-0.06423976
149	0x3db7bb97	0.08971327
150	0xbecd0ee5	-0.40050426
151	0xbe50c0f2	-0.20386103
152	0xbda52e16	-0.08065431
153	0xbeafb75c	-0.3431958
154	0x3dfed9e4	0.12443903
155	0xbe01b92f	-0.12668298
156	0x3d375321	0.044757012
157	0x3c7407d3	0.014894444
158	0x3e36eb08	0.17863095
159	0x3d9e52f2	0.07730664
160	0xbcdc5716	-0.026896995
161	0xbd31783e	-0.043327563
162	0xbe6ed1a9	-0.23322167
163	0xbe237b6e	-0.15965053
164	0x3d372a07	0.044717815
165	0xbe3e73ad	-0.18598814
166	0xbd20b4b3	-0.03923483
167	0xbceb3434	-0.028711416
168	0xbccb9843	-0.024852877
169	0x3bf10a22	0.0073559443
170	0x3d23d9ab	0.040002506
171	0x3d9ba832	0.0760044
172	0xbe12c013	-0.14331083
173	0x3d6ded27	0.058087494
174	0xbd4c899e	-0.04993593
175	0xbd6c94cb	-0.057759088
176	0x3d12d647	0.035848882
177	0xbe674e1a	-0.22588387
178	0x3e08d059	0.13360728
179	0x3d498559	0.049199436
180	0x3e1be7b7	0.15225111
181	0x3c9f913c	0.019478433
182	0xbd46a6b0	-0.04849881
183	0xbdb617ef	-0.08891284
184	0x3db76b9c	0.08956072
185	0x3d5fbc81	0.05462313
186	0xbdb7e133	-0.089785
187	0x3d2dacfc	0.0424013
188	0x3dc8fc71	0.098137744
189	0xbd40e357	-0.04709181
190	0xbd8443fa	-0.06458278
191	0x3e29a1a0	0.16565561
192	0x3ce7b169	0.028282838
193	0xbda77b05	-0.08177761
194	0x3cac6011	0.021041902
195	0x3db356d2	0.08756794
196	0x3c31b3b5	0.010846068
197	0x3e1b19be	0.15146539
198	0x3dd817ee	0.10551439
199	0xbe380ef9	-0.17974462
200	0x3cc83873	0.02444098
201	0x3e1f74ab	0.15571849
202	0x3d7daca7	0.061932232
203	0x3da98a0b	0.08278283
204	0x3d7eac3e	0.06217598
205	0x3d9ff0e1	0.07809616
206	0x3bdc7277	0.0067275125
207	0x3d192937	0.03739282
208	0x3d1ccc6d	0.038280893
209	0xbd15fc1e	-0.03661739
210	0xbd83de12	-0.06438841
211	0x3d64eaae	0.05588787
212	0x3e619f66	0.22033462
213	0xbd4982d7	-0.049197044
214	0x3dc2c8e9	0.09510977
215	0xbdc166ad	-0.09443412
216	0xbc0c824d	-0.008575988
217	0xbc9c743f	-0.0190984
218	0xbed7814e	-0.4209084
219	0xbc0ec0b8	-0.00871294
220	0x3deace82	0.114651695
221	0x3d892457	0.066963844
222	0xbe73989f	-0.23788689
223	0x3dd813aa	0.105506256
224	0xbda053df	-0.07828497
225	0xbe0d020e	-0.13770315
226	0xbda48468	-0.08033067
227	0xbe20ab52	-0.15690354
228	0xbd3fab44	-0.04679419
229	0x3db425cb	0.08796271
230	0xbd0bc08a	-0.034119166
231	0xbdc2edb7	-0.09517997
232	0xbb4fafc1	-0.003169045
233	0xbcda1ce2	-0.0266251
234	0x3d09a958	0.033608764
235	0x3d349c17	0.04409417
236	0xbd9188c6	-0.071061656
237	0x3dc6dfd6	0.09710662
238	0xbde2f632	-0.11082114
239	0x3e223e6d	0.15844126
240	0xbde81578	-0.1133222
241	0x3e4732fc	0.19453043
242	0x3d32acd7	0.043621864
243	0xbdfaaf44	-0.122404605
244	0xbe107d94	-0.14110404
245	0x3d971ea5	0.07378892
246	0x3d9ae04c	0.075623125
247	0x3ca4fac1	0.0201391
248	0x3cda8709	0.026675718
249	0xbe356573	-0.17714481
250	0xbde5c169	-0.11218531
251	0xbcc2ca2c	-0.023778044
252	0x3e30be55	0.17260106
253	0xbcbe4884	-0.023227938
254	0xbf7dc8e2	-0.9913465
255	0x3d8c3165	0.06845359

fc2.bias f4 [32]
0	0x3d0998be	0.033592932
1	0x3d742ee3	0.059615027
2	0x3d2bb033	0.041916084
3	0x3d84946c	0.06473622
4	0x3d78b996	0.060723864
5	0xbad58a75	-0.0016291874
6	0x3cf27f09	0.02960159
7	0xbe1dc725	-0.15407999
8	0x3d874392	0.06604685
9	0x3d43122a	0.047624744
10	0x3c6d9072	0.0144997705
11	0x3d7195e0	0.058980823
12	0x3de6fe36	0.11278956
13	0xbcd3b216	-0.025841754
14	0xbdbfed50	-0.09371436
15	0x3bbca219	0.0057566282
16	0x3e325b20	0.17417574
17	0xbe2cdb7d	-0.16880603
18	0x3e44793a	0.1918687
19	0x3e0db4c8	0.13838494
20	0x3cd6ab55	0.026204744
21	0xbe16c6cf	-0.14724277
22	0xbd9e2538	-0.07721943
23	0x3ce0d457	0.027445002
24	0xbdda7e0f	-0.10668575
25	0xbd3be480	-0.04587221
26	0xbd007301	-0.031359676
27	0xbd6d21d4	-0.05789359
28	0x3b78de19	0.0037974177
29	0x3e215149	0.15753664
30	0x3dcb8209	0.099369116
31	0x3b1c6c47	0.002386825

fc3.weight f4 [1, 32]
0	0xbd1b7edd	-0.037962783
1	0x3c238425	0.009980236
2	0x3cbf79b3	0.02337346
3	0xbd838c85	-0.06423286
4	0x3ce74851	0.028232725
5	0xbc5d7e48	-0.013518877
6	0xbbee386e	-0.0072699105
7	0xbd3925b6	-0.04520198
8	0xbc6861d5	-0.014183481
9	0xbc6e4bac	-0.014544409
10	0x3ce0cd79	0.027441727
11	0xbdb17911	-0.0866567
12	0xbd698e91	-0.057020728
13	0xbcae25f6	-0.021258336
14	0x3bf5ae88	0.0074976124
15	0x3cc65f46	0.024215352
16	0xbc979edf	-0.018508373
17	0x3cbd9306	0.023141395
18	0x3c8dfce3	0.0173325
19	0xbc2b8243	-0.0104680685
20	0x3c938f21	0.018012585
21	0x3c2913cf	0.010319664
22	0xbc92f7d4	-0.01794044
23	0xbd6fffbd	-0.0585935
24	0xbbf47f18	-0.00746144
25	0xbcfeb4c5	-0.031092057
26	0xbc33effa	-0.010982508
27	0x3c2c5cb9	0.010520154
28	0xbc10cd80	-0.0088380575
29	0xbd4589f2	-0.048227258
30	0x3c5e0373	0.013550627
31	0x3d0069b6	0.031350814
